model/nd_v1.pt (torch, 515003 bytes, 13 tensors)

conv1.weight f4 [32, 12, 3]
00000000: 916e f9bd 5b4f b6bd bc02 3b3c c6e7 1d3e
00000010: 6dc9 973d 8c6e 8dbe cb6e b33d 20d7 933d
00000020: a4a5 5ebe a814 bd3c 3e65 98be 6fac 4cbd
00000030: 9c0c 14be 70a7 a83d f0a3 40be a4a5 a1be
00000040: 4980 3ebe 7a7a 89bd d4ed 07bc 0a95 4ebe
00000050: 3d33 02bb 41bd a53b 5369 efbd 1549 453e
00000060: b55d 353e 5722 893d 7bfe 063f b4e6 9cbd
00000070: 1078 72bd c0ec 11b7 28a3 a33c 9ff7 773e
00000080: bcd6 b0bd 6807 1bbe cfab 08bc bbcb 44be
00000090: fa16 5f3e 0ffc 25bd f19c 7c3d a369 c3bd
000000a0: 8fd1 c4be b773 85be c925 0f3e 013a 203d
000000b0: 7623 9ebb 48f5 19be 7537 7b3c 7d35 9ebd
000000c0: 2db2 b3bc 5a7e e9bd f912 073d f76c 9bbe
000000d0: 8d0e 67be 79ca a73d 9f5f f93e 3a24 60bd
000000e0: b358 d8bd 799d bdbe 3c33 05be aded b8b9
000000f0: 0b4c a13e b630 7d3d 9c7a 663d b751 09be
00000100: 1925 e1bd 9eaa 983e c347 d1be 4089 38be
00000110: 4b2c f13d d7d4 84be db92 3d3d 408d 793d
00000120: f72c adbe 3e6b b43d 075e 373e 3478 aa3d
00000130: 46ce 823d 399c 49be 5a25 963d 8f57 1d3e
00000140: b110 ee3d 15c3 b4bd c00b b9bd c66b 45be
00000150: c2b1 713e 7596 2e3d f5b0 153d 210c 78be
00000160: 6162 61be 39fd c13d b5a2 b33e a8a6 013d
00000170: d84a f23d 0ea7 a03d 435e 08be 25f5 8bbe
00000180: c626 df3e 7ed1 8c3e 8716 5f3e b385 1ebe
00000190: 46d0 743d f96f 8bbe 6872 8c3e 95e6 f8bd
000001a0: e317 9ebe 81e8 89be 9ce1 8dbd 3ebb a7bc
000001b0: 293b 443d b1ca 9ebd b285 5fbd 875c 7fbc
000001c0: 6826 31be f0dc 033c 1b86 183e aa11 c0bd
000001d0: 3581 5e3d 6fc1 cbbe 30b0 2a3e dd85 833d
000001e0: baaa 52be 752c 80bd 05c9 8cbe 0caf 0a3c
000001f0: 270b bcbc 33bd a2bd 8580 d5bd 77fb 9a3d
00000200: 4747 1bbc 711c 083e a400 943e 15f4 d8bc
00000210: 1f7f 2ebe 685a e53b 36c9 283e ef8e 4d3e
00000220: 8a21 e43e 8a25 8f3e 46e8 d53d ba95 11be
00000230: 829d e2bd a64d 89be 5f9c f2bd 4f45 71be
00000240: 09fe d0bc 2d2b c33d b84a 83be 5d07 81bd
00000250: 169d b7bb 971f af3e cde4 563e c156 97bd
00000260: 13f2 b23d a475 bdbe dabd 3f3e 4f30 12be
00000270: 413e f7bc 423b cdbe 3431 81bd 6cb9 37be
00000280: 10d1 dd3c 3bb9 9dbd c7a4 cfbd 048d 4f3e
00000290: e781 0abe a853 053c 4415 543e d998 863e
000002a0: d94d 31be 9331 10be a639 61be f55a 14be
000002b0: 564b 803d 4e23 483e baea 1a3e 450f 2a3b
000002c0: 0ecd cfbd a577 ba3d c93b ac3d 055f 14be
000002d0: ca80 47be b52a b2bb e7e0 b8b9 b506 a33e
000002e0: 0538 083c bdec 30be fcf0 8e3c fc60 2e3e
000002f0: d8c2 10be ba28 94be 0711 0e3e 61ea 5f3e
00000300: 607d f2bd 0a5c c13d d257 f2bd 0de3 63be
00000310: 9db2 3e3a 3819 9bbd 18e4 cfbe 65b8 82be
00000320: 4509 d83d ad4e f03d 4a80 c03d c32e 7e3e
00000330: 120a 503e 5a10 9bbd 34d1 11be 15cd 68be
00000340: 8b1b 3ebd d2c3 e43d 0217 c6bd 2d05 003d
00000350: d2e8 2abd acdc 1dbe 6b7e 503e fbdb bcbe
00000360: 1443 eb3d eab6 0ebf e372 55be 42a9 a63e
00000370: 704a 213e d95d 283e 92ba 3dbe 423f 733e
00000380: 0b3e b0be 9d84 82be 4bda a73e dec9 17bd
00000390: 8d4e 603d 2add 833d 535f 293e 2353 1e3e
000003a0: 9fa6 c0be 7799 b5be bff2 233e b7b8 603e
000003b0: 12dd 35be 82f0 5cbe 7558 0cbf 896f 34be
000003c0: c890 ed3e 8543 05bd fc3f b83e 0c57 65be
000003d0: 9d87 3ebe 2cd1 01bf 2b56 13be 7ea4 edbd
000003e0: cc92 1e3e 3be9 973d 1810 2cbd 192a f13d
000003f0: 55c4 9b3d d9e0 a63e fe89 4e3e f886 ec3d
-0.12179292 -0.089018546 0.011414226 0.15420446 0.07411466 -0.27623403 0.087613665 0.07218766
-0.21742874 0.023081139 -0.29764742 -0.049969133 -0.14457935 0.08235061 -0.18812537 -0.31571686
-0.18603624 -0.06712814 -0.008296449 -0.20174041 -0.0019866966 0.005057961 -0.11690011 0.1926616
0.17711528 0.06696003 0.52732056 -0.07661191 -0.05919653 -8.697796e-06 0.01997526 0.24215554
-0.08634707 -0.15139544 -0.008341744 -0.19218342 0.21786109 -0.040523585 0.06167311 -0.09541633
-0.3844113 -0.26064846 0.13979258 0.039117817 -0.0048260046 -0.15034974 0.015333046 -0.07725046
-0.021935547 -0.11401053 0.032977078 -0.3035657 -0.22564144 0.081929155 0.48705766 -0.05472205
-0.10563793 -0.37034205 -0.13007826 -0.00035272297 0.3150333 0.061814032 0.056269273 -0.13410078
-0.10993404 0.2981767 -0.40875062 -0.18021107 0.11776026 -0.25943634 0.04628263 0.060925722
-0.33823368 0.08809517 0.17906962 0.08323708 0.06387 -0.196885 0.07331343 0.15365432
0.116242774 -0.088262714 -0.09035444 -0.19279394 0.23602965 0.042623956 0.036545713 -0.24223377
-0.22010185 0.094721265 0.35085073 0.031653076 0.118306816 0.07844363 -0.13317208 -0.27335468
0.4358427 0.2750358 0.21785937 -0.1548069 0.059768938 -0.27233866 0.27431035 -0.12153355
-0.308776 -0.269352 -0.06927797 -0.020475026 0.047907982 -0.07753504 -0.05457086 -0.015586025
-0.17299807 0.008048281 0.14894907 -0.09378369 0.05432244 -0.39796016 0.16668773 0.06422017
-0.2057294 -0.062584795 -0.27497116 0.008464586 -0.022954537 -0.07946243 -0.10424904 0.07567494
-0.009477443 0.132921 0.2890674 -0.026483575 -0.1704068 0.0069993027 0.16483006 0.20074056
0.44556838 0.27958328 0.10444693 -0.14217272 -0.110651985 -0.26817054 -0.11846232 -0.23561595
-0.025511758 0.095297195 -0.25642943 -0.063002326 -0.005603443 0.3420379 0.20985718 -0.07389594
0.08737578 -0.37003815 0.18724766 -0.14276241 -0.030181052 -0.40084273 -0.06308213 -0.17941827
0.027077228 -0.077013455 -0.10138851 0.20268637 -0.13526116 0.008137621 0.20711237 0.26288489
-0.17314853 -0.14081411 -0.21994647 -0.14487822 0.06264369 0.19544718 0.15128604 0.0025949043
-0.10146533 0.09104852 0.084098406 -0.14489372 -0.19482723 -0.00543722 -0.0003526278 0.31841055
0.008314137 -0.17277808 0.017448895 0.17029184 -0.14136827 -0.28937322 0.13873683 0.21866752
-0.1184032 0.09441383 -0.11833157 -0.22254582 0.000727454 -0.075731695 -0.4060371 -0.25531307
0.10548643 0.11733756 0.09399469 0.24822526 0.20316342 -0.07571478 -0.14239961 -0.22734483
-0.046412986 0.11170162 -0.09672357 0.031254936 -0.04172594 -0.15416211 0.20360725 -0.36886582
0.114874035 -0.55747855 -0.20844607 0.32551008 0.15751052 0.1644205 -0.18528202 0.237546
-0.34422335 -0.254918 0.32783732 -0.03705775 0.05476241 0.06438668 0.1654027 0.15461402
-0.37627122 -0.35468647 0.16010569 0.21945463 -0.17760113 -0.21576121 -0.54822475 -0.17620672
0.46399522 -0.032535095 0.35986316 -0.22396487 -0.1860642 -0.50709796 -0.14388339 -0.1160364
0.15485686 0.07417532 -0.042007536 0.117756076 0.07605807 0.3259342 0.20169827 0.11549181

conv1.bias f4 [32]
00000000: 3622 ccbd 9038 953d 1490 5e3d 9206 7abd
00000010: 96cc d3bd de80 a1bc db50 0fbe 08fc 6ebb
00000020: 18aa 95bc d836 f2bd b451 193b ab24 853d
00000030: d6b0 79bd dd88 f93d 5ffc 3ebc d7ab d1bc
00000040: 1e1d cc3d 5ca5 45bb 45a9 d3bd df97 08bc
00000050: 59f4 d3bd e2c8 82bd 7ffb 793d 65a4 49bd
00000060: 49e0 eebd a49f 5a3d bc2a 42bd 51f4 d5bb
00000070: decb 013d b68f ee3d e98d 243d 8d0b f53c
-0.09967463 0.07286179 0.054336622 -0.061041422 -0.10341756 -0.019714769 -0.13995688 -0.003646614
-0.018269584 -0.11826867 0.0023394646 0.065011345 -0.06095966 0.12184308 -0.01165685 -0.025594635
0.09966491 -0.0030158376 -0.1033502 -0.00833699 -0.1034934 -0.063859716 0.06103086 -0.049229044
-0.11663873 0.0533749 -0.047404036 -0.006529369 0.031688564 0.116485044 0.0401744 0.029912734

conv2.weight f4 [32, 32, 3]
00000000: d10e 82be fd14 463e c329 103f cb62 cdbd
00000010: 6089 34be 4f01 89bd 4d0c 5dbd db3a 09bd
00000020: dd2c f63d 067c 773e e687 ae3d 76b2 ae3c
00000030: 4127 21bd 235a 0a3e c6e4 c73e c504 9fbd
00000040: 5d6c 2fbd 8e34 143e bc99 2d3e 1ffc b73e
00000050: fd02 2d3f 1707 27be 424a c1bd 0ced 5bbe
00000060: be89 553c aa61 a13c 051e 2fbe 49ba 81bc
00000070: d67b 40be 462f 88bc 3b1d c13d 8a56 9b3d
00000080: ed4c 273e b4f1 da3d 1e1a 74bd 1f22 98be
00000090: 2334 2ebe 7619 c9bd 56ba e4bd e22f 663d
000000a0: 98bf c9bd db34 6fbe 3d2d 06be c0b4 423e
000000b0: 3916 42be f9ed 63bd 8cea 433d c2cb 323d
000000c0: aaa0 433e d6b8 31bd d27b 6b3e efbe 243e
000000d0: 6538 02be b2e3 b13c d670 67be 8139 e8bd
000000e0: 57e4 9e3b dab9 b63e a474 8a3e 1a96 933e
000000f0: 7e6a 5c3e c5b2 7d3d ae5b 43bd 17c2 8d3e
00000100: ca75 f63e e49f 033f c8c7 423e 6e0a 45be
00000110: 841a 12be 8485 013d 98be 84bd b085 03bb
00000120: ca62 0b3e d1cc 12bd 90b6 babb 2886 4abd
00000130: 8080 95bb 59f5 ef3d ba1a 443e 3263 0fbe
00000140: d48b aabe bf46 8ebd ae65 063c 86cd 883e
00000150: 74d9 2a3e 417b a13d b5b5 373e aa88 d63c
00000160: 580a 173c bd24 db3c c34b 08bd d1d0 25be
00000170: 9444 f23d 951d 34bd ab79 afbd 8b69 5e3d
00000180: 92cb 82bc 16f7 a13d 16e0 a33e ab7a 3cbd
00000190: 3f3a 11be ebc9 31bd 4866 e6bd cbe7 80bd
000001a0: bb1e 19bd 8858 f8bb 62cb 2e3c 4808 fc3d
000001b0: 7d26 b13c 88cf d1bd 2048 373e 2a66 bdbb
000001c0: eb28 073e 924f 283d 971d c13e cc16 90bd
000001d0: 1dc2 56be 51a0 a9bd 73b5 41be 4200 c3be
000001e0: b93e b63c 5ca5 9d3d 083b ff3d 7581 9cbd
000001f0: a6c5 b5bd e1b6 503e 6bf7 cc3d 9e3d 2e3e
00000200: ef17 07be 3a65 023d f9d9 013e 3b06 533c
00000210: 75fd 63be ce0c 27be c754 a7be c3a5 c6bd
00000220: 5025 f7bc 6d3c 0c3e c741 b43d fa53 a9bb
00000230: 7c08 8f3e 1a43 d1b9 c5c4 1abd 4a90 b43d
00000240: 4d55 d1bd 9ee4 72bd 9ea6 6c3d 5e46 dabc
00000250: c909 a4bd 383e 433d 8fbe 7ebe 9955 3cbe
00000260: 1b18 a4bd 0350 3bbe 8a56 53be b22b 56be
00000270: 0d21 0d3d e24c 07be 9dfb 94bd 775e ddbd
00000280: 1181 633d b625 f1bd 9a42 5d3c 7d3f 89bd
00000290: d741 14bc 7f8d 31bc 31ee 93bc 9194 183e
000002a0: a932 cf3d b387 1b3e 3d4d 513d 5ccd 913d
000002b0: b60d ca3d f1bc 493d 9326 5a3e b509 45bc
000002c0: 88a5 fc3c 1066 643c efe6 8a3d 8ddd d9bc
000002d0: 11ed aabd e79e 273d 240a 75bd 0ecc 2bbd
000002e0: 2886 5dbb fcff 853d a54f 883d 0591 5bbc
000002f0: de8e 86be 4cc3 da3d 3ca6 d03d 3065 2d3e
00000300: 4c7d a13d 8e18 d83c 08a9 e7bc 7a8f 89bc
00000310: 71d4 3c3d b73d 8abd 251f 85bd f928 fbbd
00000320: 4ad0 713d d532 453d 8133 513d 1bb0 8bbd
00000330: 4438 ccbd 2919 f9bc 5e72 003c 3496 873b
00000340: 1b91 b7bd a95e c1bd 0334 99bc d860 783d
00000350: 3136 01be b911 a3bc cd52 d5bd 5084 a53b
00000360: 3073 b8bc 6e48 29bd fbae 813c 25f1 9fbd
00000370: 4ad8 8b3c 970a e6bb 1612 a8bd 1f7f b4bb
00000380: 87ef 65bd dd32 ecbd 9878 053d afbd 1abc
00000390: e07a a4bc cd3e 47bc 4ac7 97bd 3fb1 70bd
000003a0: 87da d43a a4cf 893c 5d7e 3cbc 8f00 b2bc
000003b0: bc12 4d3d 9fcb 3dbd 565f 073d 7959 75bd
000003c0: f968 333d 4639 afba 9725 84bc 4dff 87bd
000003d0: 7e6c 1d3d a81f 17bd 9865 efbd fbd2 83bd
000003e0: fb3b 1dbe 4f3c 423c 578d 52bd e3ce 5b3d
000003f0: 0a8c f8bd 3be8 44bd 954c 583d 273c 68bd
-0.2540193 0.19343944 0.56313723 -0.10028609 -0.1763053 -0.06689703 -0.05396681 -0.033503395
0.12020276 0.24168405 0.08522014 0.021325331 -0.039344076 0.13510947 0.39041728 -0.077645816
-0.042827953 0.14473173 0.16953176 0.3593454 0.67582685 -0.16311298 -0.09437992 -0.21477145
0.013033329 0.01969989 -0.17101295 -0.015835898 -0.1879724 -0.016624104 0.094294034 0.075848654
0.16337939 0.106906325 -0.05959522 -0.29713532 -0.17012076 -0.098193094 -0.11168353 0.05619801
-0.09850997 -0.23360007 -0.13103195 0.19014263 -0.1895379 -0.05564687 0.047831103 0.04365135
0.19104257 -0.043389164 0.22996452 0.1608846 -0.12716825 0.021715019 -0.22601637 -0.11339093
0.0048489976 0.35688668 0.27042115 0.28825456 0.21524999 0.061938066 -0.047694854 0.2768714
0.4813674 0.5141585 0.19021523 -0.1924226 -0.14267927 0.03162147 -0.064816654 -0.0020068698
0.13611904 -0.03583986 -0.0056980327 -0.049444348 -0.0045624375 0.11716718 0.1915082 -0.14002684
-0.33309805 -0.069470875 0.008202953 0.26719302 0.16684514 0.07884837 0.1794041 0.026188213
0.009218775 0.026750917 -0.033275377 -0.16192938 0.118294865 -0.043973524 -0.08568128 0.054299872
-0.01596621 0.07908456 0.32006902 -0.046015423 -0.14182375 -0.043405455 -0.11249977 -0.06294211
-0.037382822 -0.007578913 0.010668607 0.12306267 0.021624798 -0.102446616 0.17898607 -0.005780001
0.13199203 0.04109151 0.37717888 -0.07035598 -0.20972486 -0.08282531 -0.18916874 -0.38086134
0.022246705 0.076975554 0.12462431 -0.076418795 -0.08875589 0.20382263 0.10008129 0.17015693
-0.13192724 0.03183482 0.12680806 0.012879903 -0.22264655 -0.16313478 -0.32681867 -0.09699585
-0.03016916 0.13694926 0.088016085 -0.0051674815 0.2793616 -0.0003991358 -0.03778531 0.088165835
-0.10221348 -0.059300058 0.057776086 -0.026644882 -0.08009679 0.04766676 -0.2487738 -0.18392028
-0.0801241 -0.18292241 -0.20638481 -0.20915106 0.034455348 -0.13212922 -0.07274554 -0.10809033
0.05554301 -0.11774771 0.013504649 -0.067015626 -0.009048901 -0.010836958 -0.018057914 0.14900424
0.101170845 0.15188484 0.05109905 0.07119247 0.098658964 0.049252454 0.21303777 -0.01202624
0.03084065 0.013940349 0.06782328 -0.026594901 -0.08345998 0.040923025 -0.059824124 -0.04194265
-0.0033801887 0.06542966 0.06655816 -0.013401275 -0.26280874 0.10681781 0.10187957 0.16933131
0.078852266 0.026378896 -0.028278843 -0.016792048 0.046101037 -0.067500524 -0.06500081 -0.12263674
0.05903653 0.04814418 0.05107451 -0.06820699 -0.09971669 -0.030407505 0.007839767 0.0041377787
-0.089632235 -0.09441883 -0.018701559 0.060639232 -0.12618329 -0.019905912 -0.104161836 0.0050511733
-0.022515863 -0.04132884 0.015830508 -0.078096665 0.017070908 -0.0070203054 -0.082065746 -0.005508318
-0.056136634 -0.11533139 0.03258571 -0.009444638 -0.020078123 -0.012160969 -0.07411058 -0.058762785
0.0016239443 0.016822644 -0.011504737 -0.021728782 0.050066695 -0.046336766 0.033049904 -0.05989978
0.04380128 -0.0013368509 -0.016131205 -0.06640492 0.038433544 -0.036895424 -0.11689299 -0.06436726
-0.15354912 0.011855199 -0.051404323 0.0536641 -0.12136085 -0.048073035 0.05280741 -0.05669799

conv2.bias f4 [32]
00000000: 8b41 973b f212 9bbd 76eb 51bd 436f 933d
00000010: 9009 0abe 9171 47bd 738f 5b3c d057 8cbd
00000020: cf47 29bd edcf 4f3d cab1 0bbe 36f6 2d3d
00000030: 5a71 7a3d 150a 3d3d 7459 ddbd afcf e1bc
00000040: 4f38 22bc 4190 68bd 4783 033e f7b7 c9bd
00000050: 1da5 9fbd 4b68 f0bd 613a 11bc b363 4c3d
00000060: b4fb 9bbd 2486 93bd 0ca1 be3d c1b3 893b
00000070: c329 e03b b45f 91bd 9b44 d9bd f111 cd3c
0.0046159676 -0.07571973 -0.051249944 0.07198956 -0.1348021 -0.04869229 0.0134009 -0.068526864
-0.041328248 0.050735403 -0.1364204 0.042471133 0.061143257 0.046152193 -0.108080775 -0.027564852
-0.00990112 -0.056778196 0.12843047 -0.09849542 -0.07795165 -0.11738642 -0.008864016 0.049899768
-0.07616368 -0.0720332 0.09308061 0.0042023365 0.006840916 -0.07098332 -0.106087886 0.02503297

conv3.weight f4 [32, 32, 3]
00000000: 3555 0fbe ad5a 3fbe 0fdf 163d de2c 50be
00000010: b323 3dbd 76ad b7bd c908 b8bd ebc1 bfbc
00000020: ef10 62bd a9bf 563d 3aa9 0c3e 4c4e 4e3e
00000030: 8559 bbbd 7e97 dd3d 03eb 223d 7d7f 1c3e
00000040: 81df 383e f0f1 ebbd 0c71 ff3d 6d64 85bd
00000050: 7ed8 9abd 8a35 1abf c0f8 c3bc c9b7 02be
00000060: fd42 523e c964 7bbe 6d1a a0be 1d3b 133e
00000070: 7140 8b3e 791d 943e 56b0 9d3e b015 0bbc
00000080: 12ac f0be d341 b6bd d879 983d f5f5 ab3d
00000090: 27e4 19be 8304 3bbe b949 14be 7f87 cc3e
000000a0: be16 f7bd 7a9d c93d 2cc9 1fbd b281 c13c
000000b0: 0e79 92be 853b 913e dbbe a4bd d23d 86be
000000c0: ca4f d9bd fe10 89bd ec95 9ebd c078 de3d
000000d0: e198 733d 4f01 b8bc d8fa 243e 669c 5f3e
000000e0: 4d80 9cbe c1e3 a23e ebcc 1c3e db73 b9bd
000000f0: 1081 2e3d 90ad 883d 960b 283e bfe8 82be
00000100: 585b 85be f53b 2dbe 6134 613d 42bc 0c3d
00000110: 80c1 3e3e 6ca3 88bd e777 953d d2e5 d93b
00000120: 0f9b bebe d2f2 8ebe ca35 6fbe 6e3d 1ebd
00000130: aed2 c6bd b37a e33c 1a65 98be e01c ddbd
00000140: 7940 453d b2fa 783e aaf1 26bd a74a 00be
00000150: af67 fa3b 3361 b53d 242f 8d3d f359 823e
00000160: 0ae2 0f3d bdfe 89bd 290c 663d c890 e4bc
00000170: cddf e53c 9362 213d 6bd8 a8bd 2b12 ffbd
00000180: 2d18 ee3d 21b3 5fbd e23f 54be fbe2 5a3d
00000190: dffd a83d ad50 e6bb cf51 413d c0f2 c0bc
000001a0: 8d58 3e3d 1c02 663d 008c afbd 81c7 ab3c
000001b0: 3c19 de3d e694 0ebb 569b 043d 88d3 4cbd
000001c0: 1b17 b5bd efee c93d bf4f 423d c4c2 dfbd
000001d0: 1a20 0d3d 626c c73d 86e1 053d 3819 443e
000001e0: b7bf 0a3e 15fe b63d e7f1 5fbd 3cef 19bc
000001f0: b964 133e f187 3a3d c0a1 733e fd5a 983e
00000200: 016d 883e 7b56 8dbd 2c10 043e e8f1 76bd
00000210: dd98 0d3e dd73 aebd 4800 7f3c e4ef 09bd
00000220: 0849 f0bb 91f1 af3d 2163 343e 6699 833e
00000230: 4beb 9fbd 0aa6 2c3d 0529 2cbc ed25 1dbe
00000240: 9c92 6ebb 926a 5fbd 6740 a03e 45ae 0c3e
00000250: 417f 37bd 2748 903d c66c 5e3e 2c1c 78bc
00000260: da9b 113e 28fa 35be 4a65 113d 1c42 623e
00000270: 98f1 0e3c 7c87 b0be c2e5 0ebf a415 c63c
00000280: 8de8 f63c e57b 253c f728 5dbe 0bdb 05be
00000290: f972 2a3d 1854 d6bd 2cd8 b7bd 938a 823d
000002a0: 8655 693e de50 793e 3ff0 a73e 5fa1 cbbc
000002b0: 3ab0 ba3c 1bdd afbc b2c9 8e3d 3aa1 523d
000002c0: 4d99 5d3b 8e45 713b 0b1c ef3d 941f 933b
000002d0: 7a2b 343d 8c76 8cbd d335 803d 9314 8a3d
000002e0: 2d50 29bd ff7c aa3d 29df 563d dce7 cebd
000002f0: a013 9e3d e8b3 0fbe 8efc 55be 21e4 8d3d
00000300: 0a66 153e 7f47 c73d 246f 263d d218 85bc
00000310: e422 bf3d 97f0 103e 1e6c 93bb 7ca0 49bd
00000320: 8f1a 02bd e137 c9bd 838e 01be 28fc 8ebd
00000330: 4cb8 f0bd d767 ed3a 4adf 0fbe 29e4 69bd
00000340: 82e0 0d3c 0457 3e3e bca8 f53d 8b09 be3d
00000350: dac3 213c e9b9 733e 3703 4a3e 4771 d83d
00000360: debc 163e d2f8 623e 3db3 1a3e 2473 2abd
00000370: de60 883c fc36 1e3e e2d7 843e baf7 8c3e
00000380: d21f 583e 43a3 74bc 11dd 963c a69f a4bd
00000390: c2eb 793d ccc9 433d 2925 85bd 6ede 9a3b
000003a0: bc66 efbd 5a52 023e 8a51 2d3d 1f3b bc3d
000003b0: da3d 1bbe ca0b 8ebe 76c9 b2bd 0197 823b
000003c0: ffd7 483e 61d2 ab3e 6274 833e 4ab6 4d3d
000003d0: 0730 403d a3cc 39bc a032 ab3e 3276 13bd
000003e0: b8b3 84bd e3c2 c3bc 64fc c33d a89f ea3d
000003f0: 8c55 bc3e 5da2 53be e37e 6abe e5fd 1cbd
-0.13997348 -0.18686934 0.03683382 -0.20329615 -0.046176624 -0.08968632 -0.08986051 -0.023407897
-0.05519193 0.052428875 0.1373643 0.20147055 -0.09147934 0.108199105 0.039774906 0.15283008
0.1805401 -0.11520755 0.12472734 -0.06513295 -0.07560824 -0.60237944 -0.023922324 -0.12765421
0.20533367 -0.24550165 -0.3127016 0.14378019 0.27197602 0.28928736 0.30798596 -0.008489057
-0.4700628 -0.08899274 0.07445115 0.08396522 -0.1502844 -0.1826344 -0.14481248 0.39947125
-0.120648846 0.098444894 -0.03901021 0.023621414 -0.28607982 0.28365722 -0.08044215 -0.2621904
-0.10610922 -0.06692694 -0.07743439 0.10862875 0.05947197 -0.022461561 0.16111314 0.21837005
-0.30566636 0.31814387 0.15312545 -0.09055301 0.042603552 0.066737294 0.1641067 -0.25568196
-0.26046252 -0.16917403 0.054981593 0.034359224 0.18628502 -0.06671795 0.0729826 0.006649711
-0.37227675 -0.27919632 -0.23360363 -0.038632803 -0.09708153 0.027768468 -0.29764634 -0.10796523
0.04815719 0.24314383 -0.040757813 -0.12528478 0.0076417546 0.0885643 0.06893757 0.2545925
0.035127677 -0.067380406 0.05616394 -0.027901068 0.028060818 0.03940065 -0.082444035 -0.12454637
0.11625705 -0.05461419 -0.20727494 0.05343912 0.08251547 -0.0070286603 0.04719716 -0.023553252
0.046471167 0.056154355 -0.08571625 0.020969154 0.10844657 -0.002175623 0.032374702 -0.05000642
-0.08842298 0.09860026 0.047439333 -0.109258205 0.034454443 0.09737469 0.03268578 0.19150245
0.13549696 0.08935181 -0.054674055 -0.009395417 0.14393891 0.0455398 0.23792171 0.2975692
0.26645663 -0.069012605 0.12896794 -0.060289294 0.13827844 -0.08518193 0.015564032 -0.033676043
-0.0073329248 0.08590997 0.1761594 0.2570297 -0.078085504 0.042150535 -0.010507827 -0.15346499
-0.0036403304 -0.054544993 0.31299135 0.13738354 -0.044799093 0.07045012 0.21721181 -0.015143435
0.14219609 -0.17771208 0.035496987 0.22095531 0.008724593 -0.34478366 -0.5581933 0.02418024
0.030140186 0.01010034 -0.21597658 -0.1307184 0.041613553 -0.10465258 -0.089767784 0.06374087
0.22786531 0.24347255 0.3280048 -0.024857221 0.02278911 -0.021467736 0.06972064 0.05142329
0.0033813298 0.003681514 0.11675271 0.0044898484 0.043986775 -0.068585485 0.06260266 0.067422055
-0.041336227 0.08324622 0.052458916 -0.101028174 0.07718587 -0.14033473 -0.20897123 0.06928278
0.14589706 0.09730434 0.040633336 -0.016247187 0.09332827 0.14154278 -0.0044989726 -0.049225315
-0.03176361 -0.09825111 -0.1265202 -0.06981689 -0.11753902 0.0018112612 -0.14050022 -0.057102356
0.008659484 0.18587881 0.11995074 0.09279164 0.009873355 0.23801388 0.19727789 0.10568481
0.14720485 0.2216523 0.15107436 -0.041613713 0.016647752 0.15450662 0.25945956 0.2753275
0.21105888 -0.014931503 0.01841596 -0.08038263 0.06101585 0.04779987 -0.06501228 0.0047262227
-0.11689517 0.12726727 0.04231409 0.09190964 -0.15160313 -0.2774337 -0.08729832 0.003985286
0.19613646 0.33558944 0.2567473 0.050222673 0.046920802 -0.011340293 0.3343706 -0.03600139
-0.06479591 -0.02389664 0.09569624 0.11456233 0.36784017 -0.20667405 -0.22899966 -0.03832807

conv3.bias f4 [32]
00000000: db3d 9fbb 9e46 3c3d aa21 3e3c 9c31 c63d
00000010: db0c 5d3d 6f4d 8ebd 3a91 fcbd a416 7b3d
00000020: ed01 403d fa75 93bd af2d 22bd 25bd d73c
00000030: 743e 893d a702 343c 29af a8bd f2d0 cb3c
00000040: 6933 d2bd 2057 82bc f11e 5a3d cdb6 813c
00000050: 714c 9abc 1f26 2dbd 27db fbbd 0940 78bc
00000060: 3ea5 a13b 8832 06be 1e62 313c ed6f 2f3d
00000070: 2eb9 43bd b5f4 273d aa35 063c 7c0d e7bc
-0.0048596687 0.045965783 0.011604706 0.09677431 0.053967338 -0.06948363 -0.12332387 0.06130089
0.046876837 -0.072002366 -0.03959435 0.026335308 0.06701365 0.0109869605 -0.08236534 0.024879906
-0.10263712 -0.015910685 0.053252164 0.015834237 -0.018835278 -0.042272683 -0.12297659 -0.015151986
0.0049330285 -0.13105214 0.010826616 0.04283135 -0.047784023 0.041004855 0.008191505 -0.028204672

conv4.weight f4 [32, 32, 3]
00000000: 7f70 323d 3d49 bdbc 67a3 4fbe 83b9 6c3d
00000010: ad17 90bc a2ee c4bb 05f6 393e c1d8 15be
00000020: dc04 a6bd be09 8ebe 7212 813e 0423 783e
00000030: e8d6 35be 1d79 7ebe 2b2d 46be 2ae4 39bd
00000040: a473 a6bd db5e 54be b0a6 b0bd 1c01 9a3d
00000050: b80d f43c 983f 9abe 71e6 eebc efdd debd
00000060: d733 13bf c155 7ebc 6f06 b3bb 5d8d 8439
00000070: 7fec ddbd ed28 bdbe 4a81 efbd 3241 25be
00000080: dd03 a8be 35d9 59be 1262 29be 4e20 bbbd
00000090: 9315 cfbe 47df 5f3d 03b3 443c 40b8 72bd
000000a0: f410 b5be ef32 5ebe bf1c 47be 651e 14be
000000b0: 0633 0ebe 02d7 823d f68d 30be 66f7 373d
000000c0: 9477 3b3d 37bc 383d 7f83 94bd 3b37 693d
000000d0: 0986 9abe 468f 67be ddee 953d 1f9d fcbd
000000e0: 89dc c0bd f4f5 373e 80e4 bdbd 8655 80be
000000f0: 9579 8fbe d066 48be d107 25be 337c 7ebd
00000100: e99a 813d 9bb0 b6bd 43d0 79bd 7825 e43c
00000110: 3bee b5bd 79f2 173d 9b30 e9bd a3be 59bd
00000120: fb46 15be b09d 0bbe f47e 38be e0a1 9c3d
00000130: 6174 c83d 2be0 7ebd ef0b 69be b6c4 263c
00000140: 5cd7 9cbd f3ed 3fbb 9211 87bd 0090 71bc
00000150: 91af 063d 6aff 21be db17 a9be 565d fdbe
00000160: edae e53d 7553 a63d 22a9 eabd 3c23 c93d
00000170: 2b26 d33d 6c9d 30be 27db 09be 63ba 22bd
00000180: c3fe 783d 4a07 1b3d 37f1 89bd 31c8 e6bb
00000190: 6e1b bbbd c2ce 74bd 77aa a7bc 1c6e c1bd
000001a0: 0d74 a73c d176 903c 3f29 bcbd 4e9e f7bd
000001b0: 4900 d1ba abc5 d3bd f38f 7bbb 00c9 d7b9
000001c0: 00e0 e9b9 e381 5bbd 3ce5 a53c 8820 513d
000001d0: d4ae 5d3d db92 4ebc 9809 9fbd 6c57 4ebc
000001e0: 3c88 f7bc 2429 0b3d d83f cfbd 39ec 6b3d
000001f0: 58a8 763b 7702 44bd 3dc2 83bd e1ef 5cbd
00000200: ceb1 93bd ac28 13bd 14e6 6a3d ac43 033d
00000210: 8e2f a03a 18ed f73c 8279 cbbd a4cf 96bd
00000220: 6d94 043c 5e40 913d a78d 783d a37e 71bc
00000230: 7e3a 5d3d 076e f33c 7124 f33c 2b82 f7bd
00000240: 4c33 37bd 24c7 a63d eee9 8a3d 71a0 cebd
00000250: 15d7 1cbd 0bb9 0abe a6f7 e8bc 472f be3c
00000260: 1c4f 323d 13a9 f9bc 05a7 ba3c d7a5 2d3d
00000270: a161 03be ffde 193d 6742 e6bd 7ca4 77bc
00000280: ce3e 7abd 255a c5bc 7c9b b2bc 8c03 cf3d
00000290: 5256 bbbd e6bd 8cbd f93a debb 0e07 aebd
000002a0: c433 fabd 3b07 703d b094 8f3d 1d26 793d
000002b0: b1ec d03d 160d 603d 17ee dfbb f30c ffbc
000002c0: 2f7e 193c 622b 05be 7c49 58bc 4bb4 abbd
000002d0: 8fcb 11be 0ec7 44bd 2ed5 a4bb 0a72 473d
000002e0: cb85 b4bd 32e0 25bd 5f19 b0bb d166 42bd
000002f0: f048 233d bdfb 2a3d 8be7 bbbd cd7e 7f3d
00000300: 3305 0cbe 49d6 84bd f56d acbd 2729 c13d
00000310: c277 61bb e84c 2b3e cd52 a8bd c574 10bd
00000320: 70d4 843b 847b b6bc 438e 953d 5230 873e
00000330: ea00 39be dc6e 803d 86bd 153d 18c4 1bbe
00000340: add0 d3bd 4c64 c83e 53c3 11bd e908 23bd
00000350: 8846 023d 23d0 54be f98a 243d cff6 993e
00000360: 1fcf 1abe bf85 43bd e6cb 3cbd ec22 e9bd
00000370: be0f c7bd be99 01bd a06a 31be cc86 043e
00000380: 79f5 eb3d b597 c33d 6224 873e 826c a7bd
00000390: 7043 73be 82a4 24be 5eb3 9c3c 5cf9 ccbd
000003a0: 4c0c fa3d 5e16 543d 9c08 b0bd eec1 f43d
000003b0: dec9 90bc 3704 96bd f16a 093e 7432 633c
000003c0: 333a 903d f67a 713d 8fc5 9cbd cc10 ffbd
000003d0: 7556 e1bc e180 5e3d 805f c6bd 0be7 97bc
000003e0: 122c cabc 5b6c 143e 4232 cabc c8b7 133e
000003f0: 1959 09be 44a8 b83d 3377 0c3e afc6 c93c
0.043564316 -0.023106212 -0.20277177 0.057794105 -0.017589414 -0.0060098926 0.18160255 -0.14633466
-0.081063956 -0.27741808 0.25209385 0.24232107 -0.17757761 -0.24850889 -0.19353168 -0.04538361
-0.081275254 -0.2073931 -0.08625543 0.07519743 0.029791698 -0.30126643 -0.029162617 -0.10882174
-0.57500976 -0.015523375 -0.0054634134 0.00025282326 -0.10836124 -0.36945286 -0.11694582 -0.16138151
-0.32815447 -0.21274264 -0.16541317 -0.09137021 -0.40446147 0.054656293 0.01200557 -0.059257746
-0.35364497 -0.21699117 -0.1944456 -0.1446472 -0.13886651 0.06388666 -0.17241654 0.044913672
0.045768335 0.04510137 -0.072516434 0.056937438 -0.30180386 -0.22613248 0.0732095 -0.12334656
-0.09417064 0.17964917 -0.092720985 -0.2506525 -0.28022447 -0.1957047 -0.16116263 -0.062130164
0.06328375 -0.089204036 -0.06098963 0.027849898 -0.088833295 0.037096474 -0.11386224 -0.05316032
-0.14577858 -0.13634372 -0.18017179 0.07648063 0.097878225 -0.062225502 -0.22758459 0.0101787355
-0.07658264 -0.0029286116 -0.06595148 -0.014743805 0.032882277 -0.15820089 -0.33026013 -0.49485272
0.11215005 0.08121387 -0.11458041 0.098211735 0.10310014 -0.17247552 -0.13462506 -0.039728533
0.060789835 0.03784875 -0.06735461 -0.0070429076 -0.09136091 -0.059767492 -0.020467026 -0.0944483
0.02044108 0.017634781 -0.091875546 -0.12090741 -0.001594552 -0.103404365 -0.003838536 -0.00041157752
-0.00044608116 -0.053590667 0.020250909 0.051056415 0.054121807 -0.012608255 -0.07765502 -0.012594085
-0.030216329 0.03397478 -0.10119599 0.057598326 0.0037636962 -0.047853913 -0.064335324 -0.053939704
-0.07211648 -0.03592746 0.057348326 0.03204696 0.0012221204 0.030264422 -0.09935285 -0.07363823
0.008092028 0.07092355 0.060681965 -0.014739665 0.05401086 0.029715551 0.029680463 -0.120853744
-0.044726655 0.08143452 0.067829 -0.100891955 -0.038291056 -0.13547151 -0.0284384 0.023215903
0.043532476 -0.030476129 0.02278472 0.042394485 -0.12830211 0.03756618 -0.11243134 -0.0151149
-0.06109505 -0.024090836 -0.021802656 0.101080984 -0.09147324 -0.06872158 -0.0067819324 -0.08497439
-0.12216905 0.058600646 0.07010782 0.060827363 0.10201395 0.05469998 -0.0068338024 -0.031134104
0.009368463 -0.1300483 -0.013201114 -0.083839975 -0.14237808 -0.048041396 -0.005030296 0.04869274
-0.088145815 -0.040497012 -0.005374118 -0.047461335 0.03986448 0.041743983 -0.09175023 0.062376786
-0.13673858 -0.06486184 -0.0841941 0.09431677 -0.0034403657 0.16728556 -0.08218918 -0.03526761
0.004053645 -0.022275694 0.07302525 0.26404053 -0.18066755 0.06271145 0.036557697 -0.15211523
-0.10342536 0.3913902 -0.035586666 -0.03980342 0.031805545 -0.20782523 0.040171597 0.30071113
-0.15118073 -0.047734972 -0.04609289 -0.11383614 -0.097197995 -0.03164076 -0.1732583 0.12942046
0.115214296 0.0955042 0.26394945 -0.08174993 -0.23756194 -0.1607838 0.019128498 -0.10008499
0.12209377 0.051779144 -0.08595392 0.11951052 -0.017674383 -0.07325023 0.13419701 0.013867009
0.070423506 0.058955155 -0.07654869 -0.124543756 -0.027507046 0.054322127 -0.09686184 -0.018542787
-0.024679217 0.1449446 -0.024682168 0.14425576 -0.13412894 0.09016469 0.13717346 0.024630873

conv4.bias f4 [32]
00000000: 6a3c 563d 0e2a c7bd 4f0b bf3d 7ba0 f8bd
00000010: c9e4 5c3d d9ae 8ebd 4405 f6bd 2d9e 94bd
00000020: efe4 df3d 83a9 0fbe 332a 563e 5d97 13be
00000030: c58f 183e a0ab 883d 82a5 6cbd 1cbe e1bd
00000040: be45 f53d 7678 01be 0d31 dfbc 3958 283e
00000050: a265 97bd 7aec c23d fe50 c3bd 63ce b73d
00000060: 0a1f 1b3e 7c4a debd 9bc2 08be d4bd e6bd
00000070: 80e1 913d 83e8 01bb cdd9 25be c5d9 b43c
0.05230371 -0.09724818 0.09328329 -0.12139984 0.053929124 -0.06966943 -0.12012723 -0.07256732
0.109323375 -0.14029507 0.20914535 -0.1441321 0.14898594 0.0667336 -0.057775028 -0.110225886
0.11976193 -0.12643608 -0.027245069 0.16439904 -0.07392432 0.095177606 -0.095369324 0.08974912
0.15148559 -0.108540505 -0.13355486 -0.112666756 0.07123089 -0.0019822426 -0.16196366 0.022076497

conv5.weight f4 [64, 32, 3]
00000000: a744 793d 51ea 733d 5d6e 45bd ac84 93bc
00000010: 40e7 faba b80a 83bd 59fe 8abd 7117 56bc
00000020: 7a40 c5bd 948a 613d 4086 263c 469c 933d
00000030: 6987 b93c 052a 43bd 9faf 713d fca4 dabc
00000040: caa1 42bc 7de3 f9bb 485f 7a3d 9628 a93d
00000050: 0c10 b83d bb57 2bbd d8ee bd3c 189a f83c
00000060: 76e9 86bd 0e50 413b 4e63 1b3d 98bc 923d
00000070: e849 b53d 1964 cfbd 4932 243d 4271 813c
00000080: 0121 80bd 5aad 6cbb 1a83 83bc c014 f33c
00000090: 54d2 5f3d 0c90 11bd 04c4 26bc 0c6e 233a
000000a0: 62fd 29bb ef56 99bb 2034 673d f27c 893d
000000b0: 4724 953d 1cdc 82bc 2657 803d a950 74bd
000000c0: 39f5 6cbd 743c e43b 089c 43bd 9cf2 c73d
000000d0: 38cc 0bbd a7fa 31bd c48f c43c a9ba 79bc
000000e0: 8782 04be 1723 54bd 3290 e2bc 2419 ebbc
000000f0: e943 14be 1c19 06bc 7e90 29be 2b84 e0bd
00000100: c264 71bb 22a3 89bd 6064 2f3d acb1 2f3d
00000110: 0402 173d 2569 3ebd 4bf5 cbbd b4b4 16bd
00000120: 7b1a acbd 0ab1 fcbd ace1 ae3c 585d 803d
00000130: 15bf 8fbd 7641 b6bd 9f23 c63c ac5b b2bd
00000140: ea24 1a3d 4449 aa3d b469 9e3c d037 abbb
00000150: f179 20bd 21a9 8ebd c6b7 a0bc 41a4 83bd
00000160: 9a27 bfbd 96ec e7bd d99a 543d b4fd 8abd
00000170: d1b7 95bd a770 b3bc 3c16 9ebc cdf2 0cbe
00000180: 9749 a4bc 7b43 83bd 27bb 893d 8a32 b63d
00000190: 9d34 67bb 9c4e 943d f4ba 2339 1a07 babc
000001a0: 1d49 51bd 2242 b1bd fc8d 383d 1af5 b43d
000001b0: e071 52be 521e c9bc 2dc2 86bd 492f 6e3c
000001c0: b039 57bd 8eae a93d 1d7b 99bd c714 4abd
000001d0: fa05 2bbd 525e 7f3d 8df3 223d 8ebf f33c
000001e0: e2dd 903d 304f c33d b6f5 753d b752 6f3d
000001f0: 9660 6bbe ed34 db3c 6ae1 b4bd e0ac ccbd
00000200: 4480 19be 0c8d bb3c 5bf4 ba3d ef91 ca3d
00000210: a4fa 87be 7ccc 523e 5acb 6f3e 5bc0 51be
00000220: 92be 723e 579b c83c ab52 56bd 01f8 563d
00000230: 5259 1d3c d74c 00bd 2658 2cbd 426c 903c
00000240: 4f14 0f3b afaf 2bbe 9905 cfbd 7d23 bd3d
00000250: 9ec9 0a3e 5e11 f0bc c4e8 0abe 73fa 913b
00000260: e195 343e a40b cd3d 0cb0 75be c414 06be
00000270: 3fd8 b5bc f3c9 dfbc 37d8 283e 581e 94be
00000280: 7905 d53d 2ac6 83be a365 ba3d aebc 103d
00000290: 8943 7a3b 3fce 48be 01ec 943d f900 fdbc
000002a0: 6711 bcbd 3a7a 133e 6f15 80bc 07c8 973c
000002b0: 08f4 073c cacc b13d 9ac3 b6be 8c9c 2bbe
000002c0: 53cc 103e ff25 d13c bcb6 1dbd 1a4c b03d
000002d0: 6896 a6bd af81 973d 3ded 213e 9a2a 84be
000002e0: dc3f 29be fbd3 93bd a29a 7b3d 05cb 1dbc
000002f0: 8dcd 3abd 73c5 063d fcec f83c f0e3 123e
00000300: d55d 013e 8f1c debc bacc a5be 6b54 5f3d
00000310: 02d4 5d3d 6ce0 0fbd 6851 f6bb b42e c2bd
00000320: 7ec7 5ebe 70ca e8bc 0027 66bc 2da8 02bd
00000330: c3f2 f7bd 1673 95bd 0939 b6bb c511 843d
00000340: c92c 88bd d328 4dbd 0488 0d3b 54c5 ba3c
00000350: 8ac5 f43c 11b0 14bc 4db7 2c3d 8abb 883d
00000360: 90d2 33be 8bc8 f13d c587 06be 828d e53d
00000370: 97b5 30be 2ce7 273d a3f5 51bd f208 d3bc
00000380: 0ca4 30be aa4c 13be 14de d6bd 2939 c9bd
00000390: 5652 69bd 2473 69bd c7a6 373e 9b5f 0e3e
000003a0: dad4 13bd dcbb eebc c3bf b3bd f233 b53d
000003b0: 249e babd 3da0 3f3d 17d7 363d 3568 82bd
000003c0: 7453 97bd 1ca3 bebd fc64 573e 91de 9cbd
000003d0: 4dc7 9cbc a7ed b23c f817 06be d4f7 25be
000003e0: a6e0 cabd 6de0 d6bd afb5 96bd 2d1c 8b3e
000003f0: 1523 39bd 1d40 8bbe 1f7f f3bd ad0e a33d
0.060856488 0.059549633 -0.048200954 -0.018007599 -0.0019142404 -0.06398529 -0.06786794 -0.013067112
-0.096314386 0.0550638 0.010163844 0.07207541 0.022647576 -0.047647495 0.059005376 -0.026689999
-0.011879394 -0.0076259957 0.061126024 0.08259694 0.08987436 -0.041831713 0.023185179 0.030346915
-0.06587498 0.002949718 0.0379365 0.07164878 0.08851987 -0.10126514 0.04008702 0.015801076
-0.06256295 -0.0036114068 -0.016053725 0.02967298 0.054643944 -0.035537764 -0.01017857 0.0006234355
-0.0025938381 -0.0046795527 0.056446195 0.067132846 0.0728231 -0.015974097 0.06266622 -0.059647236
-0.05785105 0.0069652144 -0.047756225 0.09763071 -0.034130305 -0.04345193 0.023994334 -0.015242257
-0.12940417 -0.051791277 -0.027656648 -0.028698511 -0.1447903 -0.0081846975 -0.16559026 -0.10962709
-0.0036833738 -0.06720568 0.042820334 0.04289405 0.036867157 -0.046486992 -0.09958895 -0.036793426
-0.08403488 -0.12338455 0.021347843 0.06267804 -0.07018868 -0.088992044 0.024186907 -0.08708891
0.03763286 0.083147556 0.019337513 -0.005225159 -0.039178792 -0.069658525 -0.01961888 -0.06427813
-0.09333725 -0.11324422 0.051905487 -0.06786671 -0.07310451 -0.021904303 -0.019297712 -0.13764496
-0.020054622 -0.06409355 0.067251496 0.08896358 -0.0035279163 0.07241556 0.00015614537 -0.022708464
-0.051095117 -0.08655192 0.04505728 0.08835812 -0.20551252 -0.02455059 -0.06580005 0.014537641
-0.05254525 0.08285247 -0.07494185 -0.04933622 -0.041753747 0.06234581 0.03978305 0.029754426
0.07073571 0.09536588 0.06004878 0.058428492 -0.22986063 0.026758635 -0.08832057 -0.09993911
-0.14990336 0.022894405 0.09128638 0.09891116 -0.2655841 0.20585817 0.23417416 -0.20483534
0.2370551 0.024488134 -0.052324932 0.05248261 0.009603815 -0.03132328 -0.042076252 0.017629746
0.0021832173 -0.16766237 -0.101084895 0.092352845 0.13553473 -0.029305156 -0.13565356 0.0044549047
0.176353 0.10011986 -0.23992938 -0.13093859 -0.02219784 -0.027317977 0.1648873 -0.289294
0.104014345 -0.25737125 0.09101417 0.03533619 0.0038187227 -0.19609927 0.07271577 -0.030884253
-0.09183007 0.14402094 -0.01563522 0.018527998 0.008297928 0.086816385 -0.35696107 -0.16758937
0.14140444 0.025530813 -0.038504347 0.08608265 -0.081341565 0.07397782 0.15813155 -0.25813752
-0.16528267 -0.072181664 0.061426766 -0.009630923 -0.045606185 0.032903146 0.03038644 0.14344764
0.1263345 -0.027113227 -0.32382756 0.054523867 0.054157265 -0.035126135 -0.0075170286 -0.09481564
-0.21755788 -0.028416842 -0.014047384 -0.031898666 -0.1210685 -0.072973415 -0.0055609983 0.06448702
-0.06649167 -0.05008776 0.0021595964 0.022799172 0.02987935 -0.009075181 0.042166997 0.06676395
-0.17560792 0.11805829 -0.1313773 0.11208631 -0.17256771 0.040991947 -0.051259648 -0.025761101
-0.17250079 -0.14384714 -0.10491577 -0.098253556 -0.056963287 -0.056994572 0.17934714 0.13903658
-0.036091663 -0.029142313 -0.0877681 0.088477984 -0.09112194 0.046783675 0.04463872 -0.06367532
-0.07388964 -0.093084544 0.21034616 -0.07659639 -0.019138003 0.021841837 -0.13095081 -0.1620782
-0.099061295 -0.104920246 -0.07358872 0.27169934 -0.045199472 -0.27197352 -0.11889481 0.079617836

conv5.bias f4 [64]
00000000: f2ea 9cbd 3f18 a5bd 056e 2a3d 1384 08be
00000010: d1de 0f3e b632 edbd 8589 7dbd 8ee5 b7bd
00000020: d325 a1bd 0341 473d 8b7b dfbd 9a2b 70bd
00000030: 0633 14be c9a5 053e 2116 0bbe 8589 423a
00000040: 951a 283d 62da 4c3d b0bc 3b3d 1d79 dcbc
00000050: 3e98 90bd 30b9 4b3d 1cbf 263d 0198 703c
00000060: 35cc 35bd 467c a2bd 0d49 09be 8d90 e7bd
00000070: 9a87 ac3d 8b61 d5bd ae3e 90bc 1d84 08be
00000080: 2c13 51bd 12c8 13bc a0c8 24be 3d7b 323c
00000090: 4618 11be 56bb 9dbc 78a0 f73d ebea 28be
000000a0: 34dd 8a3d 9b15 a8bc 754e 253c 4676 10be
000000b0: c4c4 95bc 2894 9dbd 8f72 dc3c cccf 06be
000000c0: 2be6 07bd 0bb3 debd fb23 32bb 0d6c a2bc
000000d0: 2a4c 6d3c c73f 22be e232 a9bd 8d92 433e
000000e0: a019 1a3c db3d 81bd 8acd 57bd 1088 cb3d
000000f0: 46be 3a3d d8f8 6bbd 976f 2bbd 1412 f9bd
-0.07662 -0.08061265 0.04160883 -0.13331632 0.14049841 -0.11581938 -0.061898727 -0.08979331
-0.078685425 0.048645984 -0.10912236 -0.05863533 -0.14472589 0.13051523 -0.1358266 0.00074210047
0.041040976 0.050012954 0.045834243 -0.02691322 -0.07060288 0.049737155 0.0407096 0.014684678
-0.0443842 -0.079338595 -0.13406773 -0.11306868 0.084243014 -0.104189955 -0.017608013 -0.13331647
-0.051043674 -0.009019868 -0.16092157 0.01089364 -0.14169416 -0.019254368 0.12091154 -0.16495864
0.067804724 -0.020518115 0.010089506 -0.14107618 -0.018282302 -0.07694274 0.026910095 -0.13165206
-0.03317849 -0.108739935 -0.002718209 -0.019826913 0.014483491 -0.15844642 -0.08261658 0.19098873
0.009405524 -0.06310626 -0.05268625 0.09938061 0.045591615 -0.057610363 -0.041854467 -0.12161651

fc1.weight f4 [128, 864]
00000000: 9019 8bba c81b 8fbd 2bf1 d53d df51 913d
00000010: 5126 3d3c df0f 343e 357e 043d 5cef 71bd
00000020: 20ad d9bd 6a9f 9bbd 2710 30be 2894 2abe
00000030: 780f d7bc 96b7 3c3e fb2e 453d 760e 133d
00000040: 24d5 16bd 4c9b c0bc 4110 a0bd 5b25 933d
00000050: 0681 babc 51cf f23c a7f6 c43d 5a5c 893d
00000060: ba1a f3bb f44b c2bd 6294 a3bd 81db 0f3d
00000070: 4f04 1ebc 5fe5 eebd ec52 7fbd 43df e8bc
00000080: 3b01 43bd 7a37 443d 5896 cf3d d317 443c
00000090: 7c4e dabd 2f2f 383d fdc1 7b3c 4ec8 f1bd
000000a0: cb78 b8bd b20e 0ebd 9f5b 9cbd 731b 3a3d
000000b0: 0be4 433e 9060 323d a60d 86bd a40b 0cbe
000000c0: a517 34be 85d0 b6bd 8e1b 26be 1721 22bd
000000d0: 3f44 363d 8c71 163c 3508 cbbd 8277 14be
000000e0: 1a04 9ebc e94c 5dbe 4d68 eabc 0c8b 293d
000000f0: 6227 503c e7d8 033c 6a8d 643d 3de3 75be
00000100: 0adf 14be 2e5d b4bd 948f f13d c4dd aebd
00000110: 6a85 05be 74e0 f93c dad2 9abc b2c0 03be
00000120: 41d3 de3d c481 9a3c 09b6 13be c3ad 3d3e
00000130: 805b 213d 3e7c 653d 07b7 e9bd 572d f23c
00000140: 1ed0 d33c 206d da3b 548b 53bc dbac 00bd
00000150: 4257 b53c 7098 1bbb 106e 633c e2ec 35bc
00000160: a854 a73b 783d b03b f29c 0dbc d66b d5bc
00000170: 54c9 87bb e40d 64bc 1064 673c e09e 523b
00000180: 6e14 68bc b8d1 da3b 48df 76bb e003 ec3c
00000190: 0856 91bc 8df7 d2bc dc97 ab3c b8d1 7c3c
000001a0: 4425 c5bc ae13 c7bc 3c09 d53c eedb 51bc
000001b0: 5000 043d 2ec4 513e a762 f8bd 28a9 22bd
000001c0: 05d8 773b 85b2 02be f447 903c 5fb0 25be
000001d0: a095 aebc d4e8 27bd 94ba 90bc ddef 443d
000001e0: 12eb d3bd a348 b5bc 04e8 49bc 78e7 bbbd
000001f0: e87f 04be 851f f73d 39a3 b13d d2d7 78bd
00000200: a972 05bd c3c5 373c af7d 4ebd 4de7 9dbd
00000210: 5c43 5abd b4aa aabd bed5 75be f962 683e
00000220: aa94 c4be 50ea f6bd 369f 4f3e 48ed 63be
00000230: 56c2 d33c 99ce e3bc 9833 e1bd 0aef 543e
00000240: b35f d3bd 5743 ae3d 3a42 443c ceb1 063e
00000250: cf1a 5abe bd2f 3fbe 9cc3 143e 7a62 0c3e
00000260: 8c33 063e d8a8 7bbe f013 bebd 2426 75bd
00000270: 985f 17be 9afe 0a3d 2ae8 063d e80b 0fbe
00000280: 0514 2fbe 2b2b e83b 3f11 58bd 3915 99bd
00000290: 7976 88bd b766 c73c 262b 90bc af98 28be
000002a0: 1bef d3bd 62ee ce3c 8569 77bd 4622 503d
000002b0: b0a8 2ebd 7c13 e3bd d6cb 243e ac39 b93d
000002c0: 286e 78be ca34 263e 5b7b 063e 917b 76bd
000002d0: 5b58 c33a 842a cd3d 4a69 b0bd 4ceb a93d
000002e0: 9886 a63d c81a 20bd df6d bebc 0c02 5c3d
000002f0: 5258 3f3d 0a20 23be b15f 9cbd a2ce ea3d
00000300: d26d d7bd f649 af3d f2ab 103e faf3 9d3d
00000310: 5bea 07bd f099 3bbe 20bd 88bd f905 99bd
00000320: 6bd7 a2bc e97e aabd 1340 b83d aed5 fdbc
00000330: de83 cc3c bfdb b83c ddbd 99bd 6e9b a0bd
00000340: 92a4 73bc b405 6eb9 8568 ac3d 522c 773d
00000350: 12f5 503c 995b 33bc dd4c 083d 3220 d2bd
00000360: 34b2 38be 76c8 fc3b 2781 6a3d efc6 fa3c
00000370: bccb 293d bc7d d23d d232 a93c a49e 0d3d
00000380: 3827 98bc 6498 6e3c 3d63 95bc 6e87 4abd
00000390: a00f 85bd e049 183e 230f a93c 2996 913d
000003a0: 6d56 1f3c d997 87bd 7ecc 003d 2960 d03d
000003b0: cfe9 3bbc 6b7d 64bd fd6b cb3c 5e7d 793d
000003c0: 358f 443d 8d3e ca3c b9b1 91bd 50fe b2be
000003d0: a554 f0bd 6b88 233d c7b3 07be a8a2 3abe
000003e0: 6f9f 97bc 1931 2c3d c1aa ca3c 6118 533d
000003f0: 06aa e73c b990 b43c 4766 5ebd f9ab dfbd
-0.0010612477 -0.06987721 0.1044639 0.07095694 0.01154478 0.1758418 0.032346923 -0.05906616
-0.10628724 -0.07598765 -0.17193662 -0.1665808 -0.026252493 0.18429407 0.048140507 0.035902463
-0.03682436 -0.023511551 -0.078156 0.07184859 -0.022766601 0.029639872 0.09617358 0.06707068
-0.0074189575 -0.09487143 -0.07987286 0.035121445 -0.009644582 -0.11664843 -0.06233494 -0.028426772
-0.047608595 0.04790447 0.10136098 0.011968571 -0.10659501 0.044966873 0.015366075 -0.11805783
-0.090074144 -0.034681983 -0.07634663 0.045436334 0.1912996 0.04354912 -0.06545572 -0.13676316
-0.17587145 -0.08926491 -0.16221449 -0.03958234 0.04449868 0.009182345 -0.09913675 -0.14498714
-0.019289065 -0.2161137 -0.028614188 0.04139237 0.012704702 0.008047319 0.055798925 -0.24012466
-0.14538208 -0.08806835 0.117949635 -0.08538392 -0.13039175 0.030502535 -0.01889937 -0.12866476
0.10880137 0.018860705 -0.1442491 0.18523316 0.0393939 0.05602669 -0.11411863 0.029562635
0.025856074 0.0066658407 -0.012911636 -0.031414848 0.022136334 -0.0023741983 0.013881221 -0.011103841
0.0051065274 0.0053784214 -0.008643376 -0.026052397 -0.004143873 -0.013919327 0.014122978 0.0032138154
-0.014165027 0.0066778325 -0.0037669707 0.028810441 -0.017741218 -0.025752807 0.020946436 0.01543086
-0.024065621 -0.024301376 0.02600538 -0.012808783 0.03222686 0.20484993 -0.121281914 -0.0397121
0.0037817967 -0.12763412 0.017612435 -0.16180561 -0.021311581 -0.040993527 -0.017667092 0.048080314
-0.103475705 -0.022129362 -0.012323383 -0.091750085 -0.12939417 0.12066559 0.086737104 -0.060752697
-0.03258005 0.011216584 -0.05041283 -0.07710133 -0.053286895 -0.0833334 -0.24007317 0.22694005
-0.38394672 -0.1205641 0.20275578 -0.22258484 0.025849503 -0.027808474 -0.10996169 0.20794311
-0.103209876 0.08508938 0.01197868 0.13153765 -0.21299289 -0.18670554 0.14527744 0.13709441
0.13105601 -0.24576128 -0.092811465 -0.059850827 -0.1478256 0.033934213 0.032936253 -0.13969386
-0.1709748 0.007085224 -0.052750822 -0.07474751 -0.06663222 0.02434097 -0.0175987 -0.16464494
-0.1034834 0.025260154 -0.060403366 0.050813936 -0.04264134 -0.11087701 0.16093382 0.09044203
-0.24260771 0.16231075 0.13132994 -0.060176436 0.0014903651 0.10017875 -0.08613832 0.082968324
0.081311405 -0.03908804 -0.02324575 0.05371289 0.04671509 -0.1593019 -0.07635439 0.11465193
-0.105189934 0.08559029 0.14128092 0.077125505 -0.033182483 -0.18320441 -0.06676698 -0.07471842
-0.01987811 -0.083249874 0.08996596 -0.03098568 0.024965223 0.02256572 -0.07506917 -0.07842146
-0.01487078 -0.00022699573 0.08418373 0.060345 0.012753742 -0.010947132 0.033276428 -0.10260047
-0.18036729 0.0077143265 0.057252076 0.030612437 0.041454062 0.10277888 0.020654116 0.03457512
-0.018573388 0.0145627 -0.018235797 -0.049445562 -0.06497121 0.14871931 0.0206371 0.07108719
0.009725195 -0.066207595 0.03144502 0.10174591 -0.0114693185 -0.05578367 0.024831766 0.060910575
0.047988135 0.02468803 -0.07113976 -0.3495965 -0.11734895 0.03992502 -0.13252173 -0.18226111
-0.018508641 0.04203901 0.024739625 0.05153692 0.028279316 0.022041665 -0.054296758 -0.10921473

fc1.bias f4 [128]
00000000: 7ffb 44bd 22b2 8cbd d9dd ab3d fd43 fdbc
00000010: f277 87bd 8fd6 ffbc b430 183e 3e99 813d
00000020: 445b 3b3a 1fce 4abc e343 893d b807 f33d
00000030: cccb e13d e8de e8bc afce 2a3b 3d67 9abb
00000040: a1de 2bbd b597 9dbc 9d40 35bd b8c1 50bd
00000050: be37 783d 6749 71bd 323a 03bd 33d1 453c
00000060: 6ce7 9abd fb30 bf3c 34d1 ccbd 3e61 b63d
00000070: 53b6 abbc 04e4 f7ba 09f3 ee3b f974 24bd
00000080: abeb 673d 4e18 f93d bf97 87bc 1cf1 a83d
00000090: 6745 c43d 08b4 1c3e 62d0 e6bc 900e 973b
000000a0: 4294 9abd c303 063e 7975 f93d 3252 25bd
000000b0: 65ce 54bd 1b44 123e e325 bdbc 3e7b 353e
000000c0: 3802 1cbd 5798 86bd 3f0f 1bbd 1b24 6abd
000000d0: f528 d93d 578d 12bd 25b5 89bd 0ea7 093e
000000e0: b15f 043b a13c c1bb 3d1e 183e f23b 483e
000000f0: b89f da3d ea6c e73d bbc5 473e 4214 0c3e
00000100: e6b3 e53d 8e69 50bd 0129 133b 1705 a03d
00000110: c08a d73d a460 cd3d 6562 11bd b914 83bc
00000120: a868 2abd 847d 5b3e 802e 003e b6c8 e63b
00000130: d617 f43d aa45 c43d 3773 a3bc eb8c 1fbd
00000140: 96a4 55bc eb0e 343e c700 403e e7a2 18bc
00000150: 36f1 adbc fbad 26bd 0014 78bc 9931 34ba
00000160: 385e 923d 0eae 05bd d786 35bd 544f 96bd
00000170: 0e76 3c3e 402f 663e 3d9c d8bc b4bc e6bc
00000180: 7bd1 693e bc51 dc3d 7020 cc3d 90be 1d3e
00000190: eecd 04bd 15be 31bd 4247 91bc 5cfe 143e
000001a0: 12eb 333e 21ad e43d be7d ec3d b224 cdbc
000001b0: 8b51 d6ba a3ef 513e caa6 103e 375c 533e
000001c0: e34f 0dba 51af 073e 5094 0cbd 797b 093e
000001d0: 22f4 c13d f9fc 5a3e b095 ed3d 4ab2 8ebd
000001e0: 1473 863d aa16 143e 0e67 75bd fcab 03bd
000001f0: 483b d03d b525 4e3e e662 cfbc 2689 fe3d
-0.048091408 -0.06869914 0.083919235 -0.030916208 -0.06614675 -0.03123024 0.14862329 0.06328057
0.00071470835 -0.012378245 0.067024015 0.118667066 0.11025199 -0.028426602 0.0026063134 -0.004712014
-0.041960362 -0.019237379 -0.044251073 -0.050965995 0.060600035 -0.058907893 -0.03203792 0.012073803
-0.075636715 0.023338785 -0.1000084 0.08905266 -0.020960962 -0.0018912558 0.0072921556 -0.040150616
0.056621235 0.12162839 -0.01655185 0.08249113 0.0958355 0.15303051 -0.028175537 0.0046098903
-0.07547809 0.13087372 0.12180609 -0.04036159 -0.051954646 0.14283793 -0.023089355 0.17722794
-0.038088053 -0.06572025 -0.037856337 -0.05716334 0.10603515 -0.035779323 -0.06724004 0.13442633
0.0020198638 -0.00589712 0.14855285 0.19554117 0.10674995 0.113000706 0.19509022 0.13679603
0.112159535 -0.050881915 0.002245486 0.07813471 0.10524511 0.10028198 -0.035494227 -0.016001092
-0.041603714 0.21434599 0.12517738 0.0070429696 0.11918609 0.095836 -0.0199524 -0.03895275
-0.013039729 0.17583816 0.18750297 -0.009316183 -0.021233182 -0.040693264 -0.015141487 -0.00068738457
0.07146877 -0.032636695 -0.044318046 -0.073393494 0.1840441 0.22478962 -0.026441688 -0.028166153
0.22833817 0.10757777 0.099671245 0.15404725 -0.032422952 -0.043394167 -0.017734174 0.14550155
0.17570141 0.11165834 0.11547421 -0.025041912 -0.0016351206 0.2050157 0.14126125 0.20640646
-0.0005390627 0.13250472 -0.03432113 0.13426007 0.09470393 0.21385564 0.11600816 -0.069676
0.06564918 0.1446177 -0.059912734 -0.03214644 0.10167557 0.20131572 -0.025315713 0.12428503

fc2.weight f4 [1, 128]
00000000: 7573 063e 81ac f13c 4c26 6c3d 0126 cfbc
00000010: 494d 2dbc 871d 663d 92ad a6bd 6bab 023e
00000020: 252f 3a3b 35c5 293d 5ab5 7e3d f245 8a3d
00000030: b30a 84bd e129 90ba fd0c 02bc 6a5d 03be
00000040: ab2e 663d 4b02 9eba ac0e 1b3d e058 3c39
00000050: ce0e 803d e21f 9e3e c1c0 c43a afd3 343d
00000060: 6167 88bb a7a9 b3bc aa68 53bb f1fd 803d
00000070: 9bb6 1bbc a18b 5f3d c03a 20be 3891 b3bb
00000080: 33dd 833d 40f3 a1bd c885 4cbc 363c c43d
00000090: c6c2 183e 2b60 1d3e d2b1 9e3c bcb2 c43d
000000a0: 9752 003e 9ee9 32bd 033b 973d b663 23bc
000000b0: d8e9 5b3b 5df1 ffbd d886 65bd 13f8 f7bd
000000c0: 4c01 40bd c1fc e4bb bc2c 793d 5e14 09bd
000000d0: 45b0 cb3d ca69 bfbc 83b8 163e a05e 413e
000000e0: af2b a73b 3810 9d3d af33 1ebe c6e6 a3bd
000000f0: 1303 c13d 428d 13be 88bd 0ebe 2608 c93e
00000100: f7c9 6f3e 7dca 26bc ac9e 763d 384b 9a3d
00000110: f6c0 433e 000f 803d d5a4 ddba c5e0 043c
00000120: e964 e2bd 98b9 9abd 892e ef3d 5759 26bb
00000130: a9c3 2dbd 274f 09be 39a5 1f3b 5e88 0b3d
00000140: 117d 09bd 3b96 52be 91d8 d6be 1201 623c
00000150: 7e8c 0f3b 4bf0 e63a 4e79 6d3d 6c3d 353b
00000160: fc95 7dbe 18ad 69bd f182 103e a9ae a23c
00000170: 9026 6bbe 5c95 18be a644 57bd 8bc7 eebc
00000180: f353 09be fc72 ddbd a8b5 193e c921 f5bd
00000190: 38b1 65bc 1db3 a43b c974 32bd d35b 16be
000001a0: f388 80be 9a55 963d cab5 523e 7b71 70bd
000001b0: 0e23 25bd 5feb 2fbe df44 06bd d203 a8be
000001c0: 2fee f7bc b882 c53d f804 07bc 7983 96bd
000001d0: a00c 423e aa1c abbd 4190 063e ca3b e2bd
000001e0: c6e2 763d 7746 2bbe 564b 81bd eb96 023d
000001f0: c0b9 01be 980e 24be c948 573d a8ae 803e
0.13129981 0.029501202 0.05765371 -0.025286676 -0.010577508 0.056180503 -0.08138575 0.12760703
0.0028409448 0.041447837 0.06218467 0.06751622 -0.06447353 -0.0010998809 -0.007937667 -0.12828603
0.05619685 -0.0012055127 0.03785579 0.00017962186 0.06252824 0.308837 0.0015011058 0.04414719
-0.0041627144 -0.021931482 -0.003225843 0.062984355 -0.009503986 0.05457652 -0.15647411 -0.005479958
0.06438675 -0.079077244 -0.012483068 0.09581797 0.1491805 0.15368716 0.0193719 0.096044034
0.12531506 -0.043679826 0.073843025 -0.009972503 0.003355613 -0.12497208 -0.0560368 -0.12107863
-0.046876237 -0.0069881384 0.060833678 -0.03346669 0.0994573 -0.023365874 0.14718823 0.18883753
0.005101643 0.07669109 -0.15449403 -0.08003001 0.094244145 -0.14409354 -0.13939488 0.3926403
0.23416887 -0.010180113 0.060209915 0.07533878 0.19116578 0.06252861 -0.0016910086 0.00811023
-0.11054403 -0.075549304 0.11678798 -0.002538284 -0.042422924 -0.134091 0.0024359955 0.034065597
-0.03356654 -0.20565121 -0.41962102 0.0137942005 0.0021903808 0.001761922 0.057977013 0.0027655018
-0.24764246 -0.05704984 0.1411245 0.019858675 -0.22963929 -0.14900726 -0.052555703 -0.029147884
-0.1341093 -0.10812947 0.15010703 -0.11969335 -0.014019303 0.005026235 -0.043568406 -0.14683466
-0.25104484 0.07340546 0.2057716 -0.058701973 -0.040316634 -0.1717963 -0.032780524 -0.32815415
-0.030264942 0.09644073 -0.008240931 -0.07349295 0.18950129 -0.083550766 0.13140966 -0.1104656
0.06027486 -0.16726099 -0.06313197 0.031882208 -0.12668514 -0.16021192 0.052559648 0.25133252
