model/v1.pt (torch, 515003 bytes, 13 tensors)

conv1.weight f4 [32, 12, 3]
0	0x3e11f169	0.14252247
1	0x3e193459	0.14961375
2	0xbdc9a8af	-0.09846627
3	0xbe1c2353	-0.1524785
4	0xbdbbd7b8	-0.091720045
5	0x3e00d779	0.12582196
6	0xbbe81340	-0.007082373
7	0x3dab598f	0.08366691
8	0xbd873cef	-0.06603419
9	0xbde15046	-0.11001639
10	0x3c875e16	0.016524356
11	0x3d7f9044	0.06239344
12	0xbdc2b7dc	-0.09507725
13	0xbc085505	-0.0083210515
14	0xbd17757f	-0.036977287
15	0x3d96eebe	0.07369755
16	0x3ccee7b4	0.025256969
17	0x3d88b2a5	0.06674699
18	0x3da547e0	0.0807035
19	0xbe12d125	-0.14337595
20	0xbdb0b7c7	-0.08628803
21	0xbda09ef4	-0.07842818
22	0x3e29d802	0.16586307
23	0xbd44dec9	-0.048064027
24	0x3dbfe446	0.093697116
25	0x3dc242a8	0.0948537
26	0xbdc4915e	-0.09598039
27	0x3df9e65d	0.122021414
28	0x3e09776b	0.1342446
29	0x3d90aa31	0.070637114
30	0xbd59198b	-0.053002875
31	0xbddc304d	-0.107514
32	0xbddc8945	-0.107683696
33	0xbd377c7a	-0.044796444
34	0x3dba3ccb	0.090936266
35	0x3d85def1	0.06536663
36	0xbd7c74ba	-0.061634757
37	0x3bfba160	0.0076791495
38	0x3d8d8fe6	0.06912212
39	0xbe062570	-0.13100219
40	0xbd986d1c	-0.07442686
41	0x3e03502e	0.12823555
42	0xbe087260	-0.1332488
43	0xbe063fbc	-0.1311025
44	0xbdab0ca7	-0.083520226
45	0xbc906981	-0.017628433
46	0xbe20236d	-0.15638514
47	0x3ca94351	0.020661982
48	0xbdeea266	-0.11652069
49	0xbd2a6a79	-0.041605446
50	0xbe25addf	-0.16179608
51	0x3d7206ba	0.059088446
52	0x3e041409	0.12898268
53	0x3e28b6e1	0.16476013
54	0xbdf12d5c	-0.1177623
55	0xbd0e3bc7	-0.034724977
56	0xbdb2d197	-0.08731382
57	0x3e1cc95e	0.1531119
58	0xbd9b5e2a	-0.0758632
59	0x3dff7dac	0.12475142
60	0x3e0f5c76	0.14000115
61	0x3dbd183d	0.09233139
62	0xbdeca941	-0.1155572
63	0xbd5cd7e1	-0.053916816
64	0xbd8e1756	-0.06938045
65	0xbd8d3a96	-0.0689594
66	0xbddada9f	-0.1068623
67	0x3dc26eda	0.094937995
68	0xbdc5ada0	-0.09652257
69	0x3df6e642	0.12055637
70	0xbddaa5ea	-0.10676177
71	0xbd1cf459	-0.038318966
72	0xbd84ab24	-0.06477955
73	0xbd6030e4	-0.054734126
74	0xbded9d72	-0.11602296
75	0xbd3e3194	-0.046434
76	0x3d991263	0.0747421
77	0x3da8f665	0.08250121
78	0xbddfa303	-0.10919764
79	0xbd9a2028	-0.075256646
80	0x3dfa8a76	0.122334406
81	0xbd1ce752	-0.03830654
82	0xbbde8fd4	-0.006792048
83	0xbd8850ed	-0.0665606
84	0xbd80ad33	-0.06283035
85	0xbd07590d	-0.03304391
86	0x3e29d97e	0.16586873
87	0x3d1b6ea9	0.03794733
88	0xbdfea00f	-0.124328725
89	0xbda367bb	-0.079787694
90	0x3cd9e232	0.026597116
91	0x3dbf877e	0.09352015
92	0xbd888a17	-0.066669635
93	0xbdeadf66	-0.11468391
94	0xbbed94a1	-0.007250384
95	0x3bbe2d82	0.005803765
96	0xbd23abfb	-0.039958935
97	0x3dcbe061	0.09954906
98	0xbe11308d	-0.14178677
99	0xbdf978bf	-0.121812336
100	0x3d71253b	0.058873396
101	0xbe0d2962	-0.13785318
102	0x3e01da67	0.1268097
103	0x3d97a68d	0.07404814
104	0x3e11cf3c	0.1423921
105	0xbcd289e8	-0.025700524
106	0x3e19ad0c	0.15007418
107	0xbda65f6c	-0.08123669
108	0xbcd05f21	-0.025435986
109	0xbdcbf8bd	-0.099595524
110	0xbdaf32c7	-0.08554607
111	0x3d48669f	0.048925992
112	0xbd0facb5	-0.035076816
113	0xbd101f57	-0.035186138
114	0x3dd8d025	0.105865754
115	0x3dad615b	0.08465835
116	0x3dcb0bcc	0.099143595
117	0xbe1d3173	-0.15350895
118	0x3d2abb67	0.041682627
119	0x3e0b369b	0.13595049
120	0xbd504962	-0.050851233
121	0xbe0df03f	-0.13861178
122	0xbe065713	-0.13119154
123	0xbd89e23f	-0.06732606
124	0x3e19da02	0.1502457
125	0xbd878809	-0.066177435
126	0x3d7b346c	0.06132929
127	0xbd4f731f	-0.050646897
128	0x3e23e846	0.16006574
129	0xbe0bcf20	-0.1365323
130	0x3e22c067	0.15893708
131	0x3d7d1c3a	0.061794497
132	0xbd887fe7	-0.066650204
133	0x3e093766	0.13400039
134	0x3d117871	0.035515253
135	0x3d4f3444	0.050586954
136	0xbdc9e253	-0.09857621
137	0x3ba13a1b	0.004920257
138	0x3d9c292f	0.07625043
139	0xbe210adb	-0.15726797
140	0x3e24d70d	0.1609766
141	0x3e0bec77	0.13664423
142	0x3d6e9f79	0.058257554
143	0xbc738cfb	-0.014865155
144	0x3e1e48ab	0.15457408
145	0xbdb0ac2f	-0.086265914
146	0x3e1d3c24	0.15354973
147	0xbe04efc3	-0.12982087
148	0xbd261434	-0.04054661
149	0x3dd68a4e	0.10475598
150	0xbdf17aed	-0.11791024
151	0xbd8ee994	-0.06978145
152	0x3d8ca8fd	0.068681695
153	0x3dcbf579	0.099589296
154	0xbd0a481e	-0.033760183
155	0xbdca055b	-0.09864303
156	0x3d58ba04	0.052911773
157	0xbc25f1fe	-0.010128496
158	0xbd8bf04d	-0.06832943
159	0x3d546726	0.051856183
160	0x3dff9eeb	0.12481483
161	0xbde08a9c	-0.10963938
162	0xbd7ad28e	-0.061235957
163	0xbe03c735	-0.1286896
164	0xbba8444e	-0.0051350957
165	0x3c529bab	0.012854497
166	0xbd6ecfb9	-0.05830357
167	0x3e0f2276	0.1397799
168	0xbdadf76a	-0.08494456
169	0xbe2ab552	-0.1667073
170	0x3e11cb9b	0.14237826
171	0x3e20aec0	0.15691662
172	0x3c980382	0.01855636
173	0xbe1e0bf4	-0.15434247
174	0xbd7bc828	-0.06147018
175	0x3df39dfc	0.118953675
176	0x3dc79b83	0.097464584
177	0x3d6a72c1	0.057238344
178	0x3d87be9e	0.06628154
179	0x3d21ec3d	0.039531935
180	0x3debc3c6	0.1151195
181	0xbd53e998	-0.051736444
182	0xbdba917d	-0.09109781
183	0x3e166f64	0.1469093
184	0x3c725f26	0.014793193
185	0x3e0e625f	0.13904713
186	0x3dfd7cd0	0.12377322
187	0xbe00f630	-0.12593913
188	0x3d5efff1	0.054443303
189	0x3dd89f2d	0.10577235
190	0xbcca7584	-0.024714239
191	0xbe21e7ac	-0.15811032
192	0x3d173e71	0.036924783
193	0x3dc2e6f8	0.0951671
194	0x3ddb4158	0.10705823
195	0x3d394867	0.045235064
196	0x3d2875c4	0.041127935
197	0xbe14622b	-0.14490573
198	0xbe15d973	-0.14633732
199	0x3df9f0f1	0.12204159
200	0xbde31dbf	-0.11089658
201	0x3d9a1adb	0.075246535
202	0xbe104edc	-0.14092582
203	0x3daf010c	0.085451216
204	0xbd839ef2	-0.06426801
205	0xbe07b099	-0.1325096
206	0x3e0c2d67	0.13689195
207	0xbdb7896b	-0.08961757
208	0x3dce00e6	0.10058765
209	0xbc22438b	-0.009903799
210	0x3dcb834d	0.09937153
211	0x3e0f61b1	0.1400211
212	0x3db4cb37	0.08827823
213	0xbda2bb99	-0.07945938
214	0x3dcca8db	0.09993144
215	0x3d8cd455	0.068764366
216	0xbdcb61e1	-0.09930778
217	0xbe1221d6	-0.1427072
218	0xbe205917	-0.15658985
219	0x3e132a7c	0.14371675
220	0xbe1cf942	-0.1532946
221	0xbbfdcf5d	-0.007745667
222	0xbdb148da	-0.086564735
223	0xbd4b30e9	-0.04960719
224	0x3dfe365b	0.12412711
225	0xbd65e011	-0.05612189
226	0x3e28485a	0.1643385
227	0xbe2796dc	-0.16366142
228	0xbe1e291c	-0.1544537
229	0xbcc206b1	-0.023684831
230	0x3dda6d96	0.10665433
231	0xbe098843	-0.13430886
232	0xbe26348c	-0.16230983
233	0xbd772f9f	-0.06034815
234	0x3c5a8563	0.013337466
235	0x3e04e13b	0.12976544
236	0xbe27b21f	-0.16376542
237	0x3ca64b5b	0.020299604
238	0x3d853ee0	0.06506133
239	0x3cca3dca	0.024687666
240	0xbe17667b	-0.14785187
241	0x3cc9f451	0.024652632
242	0xbdd9f4fa	-0.10642429
243	0xbe182f74	-0.14861852
244	0xbde77258	-0.11301106
245	0x3e19662c	0.14980382
246	0x3d88ba5a	0.06676169
247	0xbde646fa	-0.112440065
248	0xbd994993	-0.07484736
249	0x3cb6f2ec	0.022332631
250	0x3d95199b	0.072802745
251	0xbda304fa	-0.079599336
252	0x3c8c000a	0.017089862
253	0x3b2fe96e	0.0026842016
254	0xbb952cea	-0.0045524733
255	0x3d936cf7	0.07198518

conv1.bias f4 [32]
0	0xbda8a7d0	-0.08235133
1	0xbdd9c89a	-0.10633965
2	0x3d1e5d84	0.038663402
3	0xbd193a54	-0.03740914
4	0x3e1483dd	0.14503427
5	0x3dd8c797	0.10584944
6	0xbe2522d4	-0.16126567
7	0x3e27b14e	0.1637623
8	0x3d72ed6a	0.059308447
9	0x3e12e6d7	0.14345871
10	0xbd8546de	-0.065076575
11	0x3dee8a05	0.11647419
12	0xbdfca0be	-0.12335347
13	0xbc257f9e	-0.010101227
14	0x3d067e81	0.032835487
15	0xbc64c124	-0.013962064
16	0xbd97d00d	-0.074127294
17	0xbe01d039	-0.12677087
18	0xbe0f705e	-0.14007708
19	0x3e1582d1	0.14600684
20	0x3e0f4f01	0.13994981
21	0x3d25f69f	0.0405184
22	0xbdda015b	-0.1064479
23	0x3cb23a8f	0.021756439
24	0xbd1d858a	-0.03845743
25	0xbc0aa0da	-0.008461202
26	0xbd935c84	-0.0719538
27	0x3c3546c5	0.011064236
28	0xbd958c29	-0.07302124
29	0xbd590171	-0.05297989
30	0xbe1fb37f	-0.15595816
31	0xbe28333f	-0.16425799

conv2.weight f4 [32, 32, 3]
0	0x3d3a281b	0.045448404
1	0xbdc0e1aa	-0.09418042
2	0x3dadfcaa	0.084954575
3	0xbd2d4701	-0.042304043
4	0x3d93f4ff	0.07224464
5	0x3d8eec7e	0.06978701
6	0x3bd2f10b	0.006437426
7	0xbd57d31c	-0.052691564
8	0x3d22f4b6	0.039784156
9	0xbdb23a07	-0.08702474
10	0x3d8417c9	0.06449849
11	0xbc6e45c3	-0.014543
12	0x3d89d199	0.06729431
13	0x3d9bdd6d	0.07610593
14	0x3bd96275	0.0066340514
15	0xbb8af03e	-0.004240065
16	0xbd860f0b	-0.06545838
17	0xbda60ad1	-0.08107532
18	0xbc31c665	-0.010850524
19	0xbd8c1cfb	-0.06841465
20	0x3dcead6e	0.10091673
21	0x3c2a595f	0.010397284
22	0x3d77b447	0.06047466
23	0x3b94c108	0.0045396127
24	0xbb91794c	-0.0044395085
25	0xbbe89563	-0.0070978864
26	0x3d2f6759	0.04282317
27	0x3cb21de5	0.02174277
28	0x3d50f83e	0.051017992
29	0xbd1f01d0	-0.038820088
30	0x3c0adc35	0.008475353
31	0x3cc02f50	0.02346006
32	0xbd41af66	-0.047286414
33	0x3c8d1772	0.017223094
34	0xbc2023d7	-0.00977417
35	0x3dcd179f	0.10014271
36	0xbd98eaba	-0.074666455
37	0xbd0b4f3b	-0.034011107
38	0xbd1425d2	-0.03616888
39	0xbd761e28	-0.060087353
40	0xbccf56e5	-0.02530999
41	0xbd932e2a	-0.071865395
42	0xbc326449	-0.010888168
43	0x3da1cdb7	0.07900565
44	0x3d92f48d	0.071755506
45	0x3d495cad	0.049160648
46	0x3d40bbb8	0.047054023
47	0x3d87e564	0.0663555
48	0xbb9ae1cf	-0.0047266255
49	0x3d5ee252	0.054415055
50	0x3d3065f3	0.043065976
51	0xbd5615e6	-0.052266978
52	0x3d993bd6	0.07482116
53	0x3daabe2d	0.083370544
54	0x3bb2da0c	0.005458122
55	0xbd87d500	-0.066324234
56	0x3d4d896c	0.050179884
57	0xbda0ffdc	-0.07861301
58	0xbc1e1f41	-0.009651006
59	0xbda50b8c	-0.08058843
60	0xbd958bf8	-0.073020875
61	0x3c99e8cc	0.018787764
62	0xbcf9b0da	-0.030479837
63	0xbdcbfb3e	-0.0996003
64	0x3cebd0a0	0.028786004
65	0xbbd5b951	-0.0065223356
66	0x3c992a2f	0.018696873
67	0x3d2593a4	0.040424004
68	0x3cceb1c4	0.02523125
69	0xbc74ffef	-0.014953597
70	0x3b98e78d	0.004666275
71	0xbda692da	-0.081334785
72	0x3d7c798a	0.061639346
73	0xbdbb4ead	-0.091458656
74	0xbd3d7bec	-0.04626076
75	0xbd5bbcfd	-0.05364703
76	0x3cc60c2c	0.024175726
77	0xbd684ddf	-0.05671489
78	0x3be654c8	0.0070291497
79	0xbd7bf264	-0.06151046
80	0x3dce7ffc	0.10083005
81	0xbd891a68	-0.0669449
82	0xbb5c74af	-0.0033638885
83	0xbdc6a8ea	-0.097001866
84	0xbd889ef4	-0.06670943
85	0x3ce85cc7	0.028364552
86	0xbd9a73d6	-0.07541625
87	0x3db2edc4	0.087367564
88	0xbd277e80	-0.040892124
89	0x3d966c31	0.073448546
90	0x3d10235d	0.035189975
91	0xbcfc9f84	-0.030837782
92	0x3d540212	0.051759787
93	0x3d515fbc	0.05111669
94	0xbda70eda	-0.081571296
95	0xbd307d5f	-0.043088313
96	0x3d5c0e63	0.053724658
97	0x3c8a735b	0.016900709
98	0x3d850508	0.064951
99	0xbdb7d5bf	-0.08976316
100	0x3d988cc4	0.07448724
101	0x3d81f82b	0.063461624
102	0xbc913b8e	-0.017728593
103	0xbd883e2d	-0.06652484
104	0xbd8ba199	-0.06817932
105	0x3d4ffd90	0.050778925
106	0xbdabf5dc	-0.08396503
107	0x3d0a0adf	0.033701774
108	0x3d689d6a	0.056790747
109	0xbd37c7e6	-0.044868372
110	0x3d5547b1	0.052070323
111	0x3d57e429	0.052707825
112	0xbd1c86c5	-0.038214464
113	0x3ce7ad03	0.02828074
114	0xbd1b8a17	-0.03797349
115	0x3b9c2087	0.0047646197
116	0xbd114bcf	-0.035472687
117	0xbd2cdbc4	-0.042201772
118	0x3cf849df	0.030308662
119	0x3ca552c0	0.02018106
120	0x3d80721b	0.06271764
121	0x3dcec9b8	0.100970685
122	0x3cbd262e	0.023089495
123	0xbdbc84ca	-0.09205015
124	0xbd91d75b	-0.07121154
125	0xbc3c6d75	-0.011500706
126	0xbdba60e9	-0.091005154
127	0xbdc8ca7b	-0.09804245
128	0x3d061df9	0.032743428
129	0x3ca680ca	0.020325083
130	0xbdc4d753	-0.09611382
131	0x3d9779c9	0.073962756
132	0xbdc035a1	-0.09385229
133	0xbdb4a36b	-0.08820232
134	0x3bea73cd	0.007154918
135	0x3c3b7748	0.011442013
136	0xbc2cc433	-0.010544824
137	0xbce53461	-0.027979078
138	0x3dab6070	0.08368003
139	0x3bfbfa98	0.007689785
140	0x3daa554c	0.0831705
141	0xbbb28992	-0.0054485286
142	0x3dc8d709	0.0980664
143	0x3d958e72	0.0730256
144	0xbda67e55	-0.08129565
145	0x3d3acb30	0.04560393
146	0xbdc2b433	-0.095070265
147	0x3dbe86ee	0.093030795
148	0x3dca4f68	0.09878427
149	0x3d5408f1	0.05176634
150	0xbb97fe74	-0.0046384875
151	0xbdc85455	-0.0978171
152	0xbd854288	-0.065068305
153	0x3ca0850e	0.019594695
154	0x3d997954	0.07493845
155	0xbcc7d363	-0.02439279
156	0x3dc05e97	0.093930416
157	0xbd93d622	-0.07218577
158	0xbd70de91	-0.058806006
159	0x3bf3fd5e	0.007445975
160	0xbc112535	-0.0088589685
161	0xbbdb84fd	-0.006699203
162	0xbdcff4b1	-0.10154093
163	0x3d9ce686	0.07661156
164	0x3d4eabeb	0.050456923
165	0xbd9f267e	-0.07771014
166	0xbd6bcae7	-0.05756655
167	0xbd4308db	-0.047615867
168	0xbd83248c	-0.06403455
169	0x3c128679	0.008943194
170	0xbd95d384	-0.07315734
171	0xbda0133e	-0.0781617
172	0x3d9e19a2	0.07719733
173	0x3dc74aa9	0.09731037
174	0x3d16a1b1	0.036775295
175	0x3c911b86	0.01771332
176	0x3dcc8f26	0.09988241
177	0x3d838a67	0.064228825
178	0x3d1b03a0	0.037845254
179	0x3d971b6b	0.073782764
180	0xbca63899	-0.02029066
181	0x3cdef0c8	0.027214423
182	0x3d58953f	0.052876707
183	0x3dc87458	0.09787816
184	0xbcef4838	-0.029209241
185	0xbd1a2dd2	-0.037641354
186	0xbb7e5563	-0.0038808219
187	0xbd6bb179	-0.057542298
188	0x3dbd1706	0.09232907
189	0x3d12debc	0.035856947
190	0x3ca21028	0.019783095
191	0xbd333790	-0.04375416
192	0x3dca5dc5	0.09881166
193	0x3b21ed0b	0.002470794
194	0xbae74fb8	-0.0017647659
195	0x3d9477bb	0.07249399
196	0xbd5b0b99	-0.053477857
197	0x3dc8c383	0.09802916
198	0x3d251c94	0.040310457
199	0x3c4e958a	0.012608895
200	0xbdba60b4	-0.09100476
201	0x3d2e1994	0.042504862
202	0xbdbdcd12	-0.0926763
203	0xbda026e3	-0.07819917
204	0x3c7c76c9	0.01540918
205	0xbd5ca02d	-0.053863693
206	0x3c003f11	0.007827536
207	0x3d00bb34	0.03142853
208	0xbda62376	-0.081122324
209	0x3d89acc8	0.067224085
210	0x3b9af9f0	0.004729502
211	0xbd1a4caa	-0.03767077
212	0xbd0a81e7	-0.03381529
213	0x3d5bf8cd	0.05370407
214	0x3dc4a442	0.09601642
215	0xbd78347d	-0.06059693
216	0xbdbcb735	-0.092146315
217	0x3dd04569	0.10169489
218	0x3dcd3008	0.10018927
219	0x3ce94133	0.028473472
220	0xbd7e7d9f	-0.06213152
221	0x3db0e5e8	0.08637601
222	0xbc4ed08c	-0.012622964
223	0x3d99c6d9	0.0750863
224	0xbd84f102	-0.06491281
225	0x3d71e27a	0.059053876
226	0xbd2cd4cf	-0.042195138
227	0xbdbc2454	-0.091866165
228	0xbd595279	-0.053057168
229	0xbd5db155	-0.054124195
230	0xbdb41b54	-0.08794275
231	0xbb9b8f33	-0.0047472953
232	0x3da6ea7a	0.081501916
233	0xbca7e2ea	-0.020493943
234	0xbd6338ee	-0.055474214
235	0x3d5d5cf1	0.054043714
236	0xbd45e51d	-0.048314203
237	0xbd73547b	-0.05940674
238	0x3da9bf7b	0.08288475
239	0x3dbdc9e8	0.09267026
240	0xbd0b675a	-0.03403411
241	0x3dc8c182	0.09802534
242	0xbdadac0f	-0.08480083
243	0xbda6cb1e	-0.0814421
244	0x3d0ab40f	0.033863124
245	0xbb7834b4	-0.003787321
246	0x3d99d8da	0.07512064
247	0xbd0895d5	-0.033346016
248	0xbc4a7c5b	-0.01235875
249	0xbdc7ceb7	-0.097562246
250	0x3daca980	0.08430767
251	0xbd189cd1	-0.037258927
252	0xbd851a28	-0.064991295
253	0xbd7da3bf	-0.06192374
254	0x3a1c08ec	0.0005952257
255	0xbda317f2	-0.079635516

conv2.bias f4 [32]
0	0xbc821d3c	-0.01588308
1	0x3d137c86	0.036007427
2	0x3c63338a	0.013867268
3	0xbdcf3763	-0.10117986
4	0xbda6f1de	-0.08151601
5	0xbd721ba7	-0.059108403
6	0x3cfc9bf6	0.030836087
7	0x3d21c764	0.039496794
8	0x39ed16b1	0.0004522107
9	0xbd09432b	-0.033511322
10	0x3d4397d3	0.047752213
11	0x3dabd97b	0.083910905
12	0x3bb487d2	0.005509355
13	0x3d2ea957	0.042641964
14	0x3c4405c2	0.011964263
15	0x3cc1eef6	0.023673516
16	0xbdc2706a	-0.094940975
17	0xbda3e992	-0.080035344
18	0xbdb6d82b	-0.089279495
19	0xbd42ddf7	-0.047574963
20	0x3d348f3e	0.04408192
21	0x3dc451a4	0.09585884
22	0x3cd9ec75	0.02660201
23	0x3d46ce2e	0.048536472
24	0x3d0ba53d	0.03409313
25	0x3c888e6d	0.016669476
26	0xbdb0a0c9	-0.08624417
27	0xbdc2c466	-0.09510116
28	0x3d171f33	0.03689499
29	0x3d837f74	0.06420794
30	0x3d1ae08d	0.037811805
31	0xbd9658be	-0.07341145

conv3.weight f4 [32, 32, 3]
0	0xbdbe841f	-0.09302544
1	0x3c196146	0.009361571
2	0xbbd9c1b3	-0.006645405
3	0xbd9b3937	-0.07579272
4	0xbdbd695d	-0.09248612
5	0x3dc06742	0.09394695
6	0x3dcabfc2	0.09899856
7	0x3d70eb94	0.058818415
8	0x3d20dee4	0.039275065
9	0xbcc67469	-0.02422543
10	0xbd072c2d	-0.033001114
11	0xbd93f31a	-0.07224102
12	0x3cfb8b9e	0.030706223
13	0x3b121cf1	0.0022295082
14	0x3d86cc40	0.06581926
15	0x3d0ab40f	0.033863124
16	0x3da9ae16	0.082851574
17	0xbd3bb333	-0.045825195
18	0xbd5866c7	-0.05283239
19	0x3c986ed5	0.018607536
20	0xbd8c6980	-0.0685606
21	0xbdb40881	-0.087906845
22	0x3d5ffefc	0.05468653
23	0xbdb25c09	-0.087089606
24	0xbd8a24eb	-0.06745323
25	0x3d9be803	0.07612612
26	0xbd81f186	-0.06344895
27	0xbc58c626	-0.013230836
28	0xbdceab14	-0.10091224
29	0xbbf5b0b7	-0.0074978727
30	0x3dc3e220	0.09564614
31	0xbd2a39ef	-0.041559156
32	0x3da3a550	0.07990515
33	0x3d55f9c9	0.052240167
34	0xbc994542	-0.018709783
35	0x3db009b8	0.08595604
36	0x3cf8332a	0.030297834
37	0x3d9c9bdf	0.076469176
38	0xbdce1bf3	-0.10063925
39	0xbdcb68c5	-0.099320926
40	0xbdbe89e2	-0.09303643
41	0xbc44bd97	-0.012008092
42	0x3db64e7e	0.0890169
43	0xbcfa44b9	-0.030550348
44	0x3d15bcd7	0.036557045
45	0x3dbc9fc2	0.09210159
46	0xbd1d9315	-0.038470346
47	0x3d9f29a2	0.07771613
48	0xbd6d3228	-0.05790916
49	0x3d1be8b0	0.038063705
50	0xbd128c45	-0.035778303
51	0xbbf08f53	-0.0073413043
52	0xbd44a30c	-0.048007056
53	0xbdc150e8	-0.0943926
54	0x3cdfcda2	0.027319733
55	0x3d5f4b61	0.054515246
56	0x3da5bece	0.08093034
57	0x3cce2907	0.025166048
58	0x3d245507	0.04012015
59	0x3d8836a3	0.06651046
60	0xbdac860d	-0.08424006
61	0xbd7f75b8	-0.062368125
62	0xbd07a3b8	-0.03311512
63	0xbd24e563	-0.040257823
64	0x3dad1aed	0.08452401
65	0xbd844a57	-0.06459492
66	0xbd1c4e28	-0.038160473
67	0xbc88a0b0	-0.016678184
68	0x3cf5d4cd	0.030008698
69	0x3d0eba18	0.03484544
70	0x3dac9805	0.08427433
71	0x3d3c7129	0.046006355
72	0x3d33240d	0.043735553
73	0xbca0dd38	-0.019636735
74	0x3bd09694	0.0063656066
75	0x3c87625c	0.016526394
76	0xbce6a33a	-0.028154004
77	0xbcf207fa	-0.02954482
78	0xbc86d83b	-0.016460529
79	0xbccb505b	-0.02481859
80	0x3d8f1256	0.06985919
81	0xbdaac5dd	-0.08338521
82	0x3d5a7e30	0.053342998
83	0x3d91ca9b	0.07118722
84	0x3d3ea97d	0.046548355
85	0xbd60c300	-0.054873466
86	0x3db133bd	0.086524464
87	0x3d9e314c	0.077242464
88	0x3c5e973b	0.013585861
89	0xbd9194ac	-0.07108435
90	0xbd5e7664	-0.054312125
91	0x3d9fc059	0.07800359
92	0x3d8a6d61	0.067591436
93	0xbdc992c2	-0.09842445
94	0xbd583be8	-0.052791506
95	0xbd99c775	-0.075087465
96	0x3d3c6499	0.045994375
97	0x3da24b08	0.07924467
98	0x3da9064a	0.08253153
99	0x3baf2e71	0.0053461124
100	0xbd82f7a4	-0.0639489
101	0x3da3d7fa	0.08000179
102	0xbd638501	-0.055546764
103	0xbccdacdd	-0.025106842
104	0xbc9d52fc	-0.01920461
105	0x3db548b1	0.088517554
106	0x3d870fd4	0.06594816
107	0xbc72f185	-0.014828091
108	0x3d706a2b	0.058695
109	0x3db8db7c	0.09026238
110	0xbc51d42b	-0.012806932
111	0x3db5cb96	0.088767216
112	0x3d40cd3c	0.047070727
113	0xbd1a82e7	-0.037722494
114	0x3d2423ca	0.040073194
115	0xbd5c813f	-0.053834196
116	0x3d5a993b	0.05336879
117	0xbdb1ad61	-0.086756475
118	0x3aa967b8	0.0012924587
119	0xbd9f3104	-0.07773021
120	0x3d692a9c	0.0569254
121	0x3d23117d	0.0398116
122	0xbd7c5a99	-0.06160984
123	0x3dc8c2f5	0.0980281
124	0xbbf17fdc	-0.0073699784
125	0x3a06b3eb	0.0005138504
126	0xbdca746c	-0.09885487
127	0x3da2bef2	0.07946576
128	0x3d84f5e0	0.064922094
129	0x3d8534b7	0.06504195
130	0xbd5a2e9b	-0.053267103
131	0xbd805306	-0.062658355
132	0xbc324d14	-0.010882635
133	0x3dc7c2fb	0.097539864
134	0x3d8ba9d1	0.06819499
135	0x3cbb9044	0.02289594
136	0xbaa64278	-0.0012684604
137	0x3d907fa3	0.07055595
138	0x3d992995	0.07478634
139	0xbd335bb7	-0.043788638
140	0xbd5001e3	-0.05078305
141	0x3d6846ef	0.056708273
142	0x3d8bb6af	0.068219535
143	0x3c5e9814	0.013586063
144	0xbc9fae28	-0.019492224
145	0xbcb142d7	-0.021638317
146	0x3c9fecf1	0.019522162
147	0x3dc0fd65	0.09423331
148	0x3b848362	0.0040439824
149	0x3ca8e2b3	0.020615911
150	0x3d3bb705	0.045828838
151	0x3daea210	0.08527005
152	0x3c4a5857	0.012350163
153	0x3d99bd3e	0.07506798
154	0x3d9c1210	0.07620633
155	0xbdc4e4b3	-0.096139334
156	0xbd572fae	-0.052535705
157	0xbdbe86b6	-0.09303038
158	0x3d4bd730	0.049765766
159	0x3ba2bb40	0.0049661696
160	0x3d3c36c2	0.04595066
161	0xbdc20b12	-0.09474768
162	0xbdbcba57	-0.09215229
163	0xbd8cb0a5	-0.0686963
164	0x3d2618d8	0.040551037
165	0x3d449457	0.04799303
166	0x3bba0c14	0.0056777094
167	0x3dc91c0f	0.09819805
168	0x3da11af2	0.078664675
169	0x3da5f757	0.08103817
170	0x3db7deab	0.089780174
171	0x3d23079e	0.039802186
172	0xbd6fe69a	-0.05856953
173	0x3ccd0f16	0.025031608
174	0x3db5129c	0.0884144
175	0x3da777b2	0.08177127
176	0xbb5c88e2	-0.0033650924
177	0xba5ce102	-0.0008425863
178	0xbda4ad40	-0.08040857
179	0x3db0db24	0.08635548
180	0x3d656f2a	0.056014217
181	0xbd55dce7	-0.052212622
182	0xbd97fbed	-0.07421098
183	0x3d4522e2	0.04812897
184	0x3d3ce864	0.046120062
185	0xbd466d10	-0.048443854
186	0x3d70c5f7	0.058782544
187	0x3dbf2785	0.093337096
188	0x3d3ed17c	0.0465865
189	0xbd49f3f1	-0.049304906
190	0xbd2fb18c	-0.04289393
191	0xbd26fba4	-0.040767327
192	0xbd6003b9	-0.05469105
193	0x3d02fe20	0.031980634
194	0x3db7f71e	0.08982681
195	0x3d8219ac	0.06352553
196	0x3d20019c	0.039064035
197	0x3941c000	0.0001847744
198	0xbd98e4ce	-0.07465516
199	0x3dc6875e	0.09693788
200	0x3ca9dd54	0.02073542
201	0x3d988ef4	0.07449141
202	0x3d570bb8	0.05250141
203	0x3d138b08	0.036021262
204	0x3c366028	0.011131324
205	0x3d672bf4	0.0564384
206	0xbdcd022f	-0.10010182
207	0xbd92a8b7	-0.07161086
208	0x3dcd43b2	0.100226775
209	0xbda878dd	-0.08226178
210	0xbd9f55de	-0.0778005
211	0x3d107ca4	0.035275117
212	0xbcc4904c	-0.023994587
213	0xbdb91e3e	-0.09038971
214	0xbdca4111	-0.09875692
215	0xbcec9494	-0.028879441
216	0xbd8a8a68	-0.0676468
217	0xbd9ac37e	-0.075568184
218	0xbd95f597	-0.07322233
219	0xbd51fe44	-0.051267877
220	0x3d8aa90e	0.06770526
221	0x3d3bf3ec	0.04588692
222	0xbd0990a8	-0.03358522
223	0x3d3191d0	0.04335195
224	0xbd26f6d8	-0.040762752
225	0xbd37a07e	-0.04483079
226	0x3d667684	0.05626537
227	0xbd37b8d2	-0.044853993
228	0xbd44627e	-0.047945492
229	0xbd8af75d	-0.06785462
230	0xbd9beacb	-0.076131426
231	0x3cca87a0	0.024722874
232	0x3b0e1c00	0.002168417
233	0xbcc27994	-0.023739614
234	0xbd3cbc16	-0.04607781
235	0x3d2e991c	0.042626485
236	0x3ca836d8	0.020533964
237	0x3d378d50	0.0448125
238	0x3d8a4f5e	0.06753419
239	0xbd1f7a8a	-0.03893522
240	0x3db4b0a2	0.088227525
241	0x3dafa602	0.08576585
242	0x3b4aadc0	0.0030926317
243	0x3cd1fe50	0.025633961
244	0xbbab4560	-0.005226776
245	0x3d7e3150	0.062058747
246	0x3d77fbdc	0.060542926
247	0xb9afa900	-0.00033504516
248	0x3d908e42	0.070583835
249	0x3d2e87c4	0.042609945
250	0xbd97bb9a	-0.07408829
251	0xbce3a558	-0.027788803
252	0xbd5df264	-0.05418624
253	0x3d6d385c	0.057915077
254	0xbd442cf9	-0.04789445
255	0x3d1e4a10	0.03864485

conv3.bias f4 [32]
0	0x3dbe8349	0.093023844
1	0x3cecb2a1	0.02889377
2	0xbd5155d6	-0.05110725
3	0x3d8c6045	0.068542995
4	0x3d8431fe	0.06454848
5	0xbcb50df3	-0.022101378
6	0xbd1957fe	-0.03743743
7	0xbce97e4b	-0.028502604
8	0x3d563899	0.05230007
9	0xbd3c65b4	-0.04599543
10	0xbdb75b06	-0.08952908
11	0xbd9b38e2	-0.07579209
12	0xbdbfd300	-0.09366417
13	0xbdbacdfa	-0.09121318
14	0xbc8a0c0a	-0.016851444
15	0xbd38b97f	-0.045098778
16	0x3d6ec292	0.058291025
17	0x3d4195f8	0.047262162
18	0x3cb4e66e	0.022082534
19	0x3d8aa73c	0.06770179
20	0x3caac710	0.020846874
21	0x3cdc3312	0.026879821
22	0xbd56d856	-0.052452408
23	0xbc2031b6	-0.009777477
24	0xbdc24ae3	-0.0948694
25	0x3d9fc2a3	0.07800796
26	0x3c75de3a	0.015006596
27	0xbd7791df	-0.060441848
28	0x3dd0421e	0.10168861
29	0xbb14957e	-0.0022672112
30	0xbb804e19	-0.00391556
31	0xbd4eb8f2	-0.050469346

conv4.weight f4 [32, 32, 3]
0	0xbdce5b82	-0.100760475
1	0xba0dbd3d	-0.0005406922
2	0xbd5d821f	-0.05407917
3	0x3d71bdbe	0.059018843
4	0xb9aef372	-0.00033369247
5	0x3d1d77bb	0.038444262
6	0x3d766b58	0.060160965
7	0x3cb1b6d4	0.021693625
8	0xbd9082b6	-0.07056181
9	0xbd85b0fa	-0.06527896
10	0x3d324b00	0.043528557
11	0x3d836f11	0.064176686
12	0x3c725086	0.014789706
13	0x3d4e87dd	0.050422538
14	0x3d91fe34	0.071285635
15	0x3db78009	0.08959968
16	0x3d72663d	0.059179533
17	0x3d24e892	0.04026086
18	0xbd0a6748	-0.033789903
19	0x3d57d454	0.052692726
20	0xbd55645c	-0.052097663
21	0x3c89f432	0.016840074
22	0xbd914304	-0.0709286
23	0xbd8423f0	-0.06452167
24	0xbd0cd5a5	-0.034383435
25	0x3d0c31d1	0.034227196
26	0xbd44bb10	-0.04802996
27	0x3d157bb6	0.036494933
28	0xbd5c4df6	-0.053785287
29	0xbd8903d8	-0.06690186
30	0xbd3dd717	-0.046347704
31	0xbd564543	-0.052312147
32	0xbd74f391	-0.059802596
33	0xbd3b605c	-0.045746192
34	0x3caa22e4	0.02076859
35	0xbdb6a857	-0.08918827
36	0x3c982444	0.01857198
37	0x3d1c4aa8	0.038157135
38	0x3d1ee664	0.038793936
39	0x3da58c36	0.08083384
40	0xbd7c5086	-0.06160023
41	0x3d64d544	0.05586745
42	0xbd7b8941	-0.061410192
43	0x3db8eb5d	0.09029267
44	0x3db432d3	0.087987565
45	0xbc9676db	-0.018367222
46	0xbd3d9cfb	-0.046292286
47	0x3d848131	0.06469954
48	0x3d69e1f1	0.05710024
49	0x3db26acb	0.087117754
50	0xbdc00ec8	-0.09377819
51	0xbdc41a6c	-0.09575352
52	0x3b65e3c8	0.0035078395
53	0x3d3e8ff5	0.046524007
54	0x3cfaa463	0.030595964
55	0x3b29f908	0.0025935788
56	0x3d7c0e12	0.061536856
57	0x3d83acd7	0.06429451
58	0x3c44f949	0.012022325
59	0x3cdf2323	0.027238434
60	0x3c9329e6	0.017964315
61	0x3d742892	0.059609003
62	0x3d469e79	0.048490975
63	0x3d69fc02	0.0571251
64	0xbbf13fd0	-0.0073623434
65	0xbd0d1fae	-0.03445404
66	0xbc9c902e	-0.019111719
67	0x3dcc2553	0.099680565
68	0xbd13b65c	-0.036062583
69	0xbcfb53c0	-0.030679584
70	0xbdab7021	-0.08370996
71	0xbd98a715	-0.07453743
72	0xbd830b93	-0.06398692
73	0x3d084a2c	0.03327386
74	0xbd480b99	-0.048839185
75	0x3d249d99	0.04018936
76	0x3cd2eb68	0.025747016
77	0xbdb5c85b	-0.088761054
78	0x3d052823	0.03250898
79	0x3d446dac	0.047956154
80	0xbd1f2c5a	-0.038860656
81	0xbbd65c40	-0.006541759
82	0xbd6a46fe	-0.05719661
83	0x3dc889d2	0.09791912
84	0xbc312c85	-0.010813837
85	0xbd0ba841	-0.034096006
86	0xbcafe2f4	-0.021470524
87	0xbdab7b29	-0.083731
88	0x3d8d65b5	0.06904165
89	0x3c6b568e	0.014363898
90	0x3cd6362e	0.026148882
91	0x3abb014f	0.0014267358
92	0x3dbc22cc	0.091863245
93	0xbd434db9	-0.047681544
94	0xbcca088c	-0.024662279
95	0x3c180380	0.009278178
96	0x3d109527	0.035298493
97	0x3b7672fb	0.0037605155
98	0xbd7fe54c	-0.062474534
99	0xbd124769	-0.035712633
100	0xbdbb88e0	-0.09156966
101	0xbdc5ecae	-0.09664284
102	0xbd52ebb3	-0.05149431
103	0xbd1ee2c2	-0.03879047
104	0xbd78fc55	-0.060787518
105	0xbc8927ff	-0.016742704
106	0xbd29183c	-0.041282877
107	0xbd388a6b	-0.04505388
108	0xbdb5d2a5	-0.08878068
109	0x3daba800	0.08381653
110	0x3cde7d87	0.027159465
111	0x3dc1988c	0.09452924
112	0xbd9b9be6	-0.07598095
113	0x3c3126ad	0.010812444
114	0xbc93c3bc	-0.01803767
115	0x3c69b403	0.01426411
116	0xbdc5e669	-0.09663088
117	0xbd261f72	-0.040557332
118	0x3d8e90b0	0.06961191
119	0xbbba919e	-0.0056936285
120	0x3ccf3fca	0.025298972
121	0xbdba6ba8	-0.09102565
122	0x3c84c0ba	0.01620518
123	0xbd07329a	-0.03300724
124	0xbc0120f0	-0.007881388
125	0x3c4005c8	0.011720128
126	0x3d1d02ac	0.038332626
127	0xbc31c190	-0.010849372
128	0xbd808cef	-0.06276881
129	0x3d8eae14	0.069667965
130	0xbd85a428	-0.06525451
131	0xbda64270	-0.08118141
132	0x3db6d64e	0.08927594
133	0x3db8606e	0.090027675
134	0x3d0728cc	0.03299789
135	0x3bf076f0	0.007338397
136	0xbdab4403	-0.083625816
137	0xbd3fb46c	-0.046802923
138	0xbdb0c92d	-0.08632121
139	0x3dc76380	0.09735775
140	0xbdb09beb	-0.08623489
141	0xbcf2738c	-0.029596113
142	0xbd10fca9	-0.035397206
143	0xbd48a7db	-0.048988204
144	0x3bfbcd7d	0.007684408
145	0x3c1784ba	0.009247953
146	0x3db250f9	0.087068506
147	0xbce7df45	-0.028304705
148	0x3d9f0978	0.07765478
149	0x3db4ef6d	0.08834729
150	0x3c1b0360	0.009461254
151	0x3d56ec9f	0.052471753
152	0xbdb019e4	-0.08598688
153	0x3daebad7	0.085317306
154	0x3d2ed7fc	0.042686448
155	0x3cac740a	0.021051425
156	0xbcd38620	-0.025820792
157	0x3d7468e1	0.059670333
158	0x3ce65fdf	0.028121887
159	0xbcf75262	-0.03019065
160	0x3d55959c	0.05214463
161	0x3d880aee	0.0664271
162	0x3cb21e45	0.02174295
163	0x3d023993	0.03179319
164	0xbd1fde8f	-0.039030608
165	0xbcefa5f9	-0.029253947
166	0xbd18f4c8	-0.037342817
167	0xbd26656a	-0.04062406
168	0xbdb9887b	-0.09059235
169	0x3d803a34	0.06261101
170	0xbd42f941	-0.04760099
171	0xbd685056	-0.05671724
172	0x3d67dc37	0.056606498
173	0xbdb47330	-0.08811033
174	0xbca3152d	-0.019907558
175	0xbd4e3c0b	-0.05035023
176	0x3d0d50ac	0.034500763
177	0x3dc3a814	0.09553543
178	0xbba164b0	-0.004925333
179	0x3d7f25bc	0.062291846
180	0xbcc2a5bc	-0.023760669
181	0x3dcc119c	0.09964296
182	0x3dab670c	0.08369264
183	0xbc9476b6	-0.018123012
184	0xbd7220a9	-0.05911318
185	0x3dc92a37	0.09822505
186	0x3cfe56bc	0.031047218
187	0xbcf5f4e0	-0.030023992
188	0x3d8ec0b6	0.069703504
189	0xbcfc88b4	-0.030826904
190	0xbbe33530	-0.0069338307
191	0xbc786068	-0.015159704
192	0xbc0f5f01	-0.008750678
193	0xbdcfdf7a	-0.10150047
194	0xbda1e0c3	-0.07904198
195	0xbd177f5a	-0.036986686
196	0x3d31bf99	0.043395612
197	0xbd6deba1	-0.05808604
198	0x3d218ba0	0.039439797
199	0x3d6efecc	0.058348462
200	0xbda60b1a	-0.08107586
201	0xbc03a7c0	-0.0080356
202	0xbc6787a0	-0.014131457
203	0x3d825a7f	0.06364917
204	0x3c5b86fe	0.013398884
205	0x3ceea3f9	0.029130923
206	0x3d53a85c	0.051674232
207	0xbdc23440	-0.09482622
208	0xbd776a6b	-0.060404222
209	0x3dcc925f	0.099888556
210	0xbcb4cbfa	-0.02206992
211	0xbd878689	-0.066174574
212	0xbd6a6ff5	-0.057235677
213	0x3d8d97e5	0.06913737
214	0x3cbc0e54	0.022956051
215	0x3d6a7e63	0.057249438
216	0x3daaf6ae	0.08347832
217	0xbd8ab517	-0.067728214
218	0x3d350dd0	0.044202626
219	0xbd026d7f	-0.031842705
220	0xbbf9d056	-0.0076237125
221	0x3dacdce8	0.08440572
222	0xbda2180b	-0.07914742
223	0x3a88dec0	0.0010442361
224	0xbd98d740	-0.07462931
225	0xbd0bcab6	-0.034128867
226	0x3cc4a460	0.024004161
227	0xbbc3dfa0	-0.005977586
228	0x3cd48f40	0.025947213
229	0xbdc2e7ca	-0.095168665
230	0xbd12b53c	-0.03581737
231	0x3cd54a90	0.02603653
232	0x3d9139e4	0.0709112
233	0xbcde88d4	-0.027164854
234	0x3ca6fb58	0.020383522
235	0xbbc8665a	-0.006115717
236	0xbd8c3146	-0.06845336
237	0x3db5b793	0.08872905
238	0xbd6a6063	-0.057220828
239	0xbdbafab0	-0.09129846
240	0x3c1c6dc5	0.0095476555
241	0xb9f954a1	-0.00047556034
242	0x3db2ed48	0.08736664
243	0x3d95cf19	0.07314891
244	0xbd22d384	-0.0397525
245	0x3ba1fec2	0.0049436996
246	0xbc71d092	-0.0147592
247	0x3d90d005	0.070709266
248	0x3d9eb418	0.07749194
249	0x3d853a70	0.06505287
250	0xbd37d17b	-0.04487751
251	0x3db7bcd3	0.08971562
252	0x3d07d948	0.0331662
253	0x3da0e853	0.07856812
254	0xbd014ee5	-0.03156938
255	0xbbeaf50d	-0.0071703256

conv4.bias f4 [32]
0	0x3c9b1c4a	0.018934388
1	0xbd659647	-0.05605152
2	0xbcb4c2d0	-0.02206555
3	0x3b0a595c	0.0021110391
4	0x3bc71306	0.006075266
5	0x3d93a2b2	0.07208766
6	0xbd9a4ed7	-0.07534569
7	0x3b6c9ba0	0.0036103502
8	0xbcf18fdc	-0.029487543
9	0xbcd572c4	-0.026055701
10	0x3cf3b127	0.029747559
11	0x3c80b618	0.015711829
12	0x3dd375b1	0.10325182
13	0xbbdd8eaf	-0.006761394
14	0xbd115a32	-0.035486408
15	0x3d4b7744	0.049674287
16	0xbdb40484	-0.08789924
17	0x3cb6d5f4	0.022318818
18	0x3cc1e798	0.023670003
19	0x3da13887	0.0787211
20	0xbdafc18a	-0.085818365
21	0xbd71ca19	-0.059030626
22	0xbca17a4f	-0.019711642
23	0xbda15d21	-0.07879091
24	0x3b81e609	0.00396419
25	0x3db4d8bb	0.088304006
26	0xbb29caf3	-0.002590832
27	0x3b172cd8	0.00230675
28	0xbc6909e0	-0.014223546
29	0x3ca28ab0	0.019841522
30	0x3d0c8361	0.03430498
31	0xbbbc2135	-0.0057412633

conv5.weight f4 [64, 32, 3]
0	0xbd61ab52	-0.055095024
1	0x3d3a1148	0.045426637
2	0x3d784804	0.060615554
3	0x3d8855dc	0.066570014
4	0xbcd5b71c	-0.02608829
5	0x3dca7382	0.098853126
6	0xbd9a8d2e	-0.07546459
7	0x3d53386c	0.05156748
8	0xbd97866f	-0.07398688
9	0x3c97853c	0.018496148
10	0xbd720d72	-0.059094854
11	0x3d7b3340	0.061328173
12	0x3d419718	0.047263235
13	0xbdb643f1	-0.088996775
14	0xbd8209b4	-0.06349507
15	0x3d3b7434	0.045765117
16	0x3dcfd374	0.10147753
17	0xbd2840c3	-0.041077387
18	0x3dd00e12	0.10158934
19	0x3d22ab08	0.03971389
20	0x3cdc0c28	0.026861265
21	0xbdbd13f4	-0.092323214
22	0x3da90784	0.082533866
23	0xbd6a8b25	-0.057261605
24	0xbdbded0a	-0.09273727
25	0xbdb68524	-0.08912113
26	0x3d875046	0.06607108
27	0xbd22fa0c	-0.039789245
28	0xbd7e7015	-0.06211861
29	0xbd282967	-0.04105511
30	0x3d9c8ede	0.07644437
31	0xbc4cfd10	-0.012511507
32	0x3d898316	0.06714456
33	0x3aff9040	0.0019497946
34	0x3dbe46e8	0.09290868
35	0x3ca72abc	0.02040612
36	0xbd975436	-0.07389109
37	0xbdabddfe	-0.08391951
38	0xbdc2bd41	-0.095087536
39	0xbc8c7e98	-0.017150208
40	0xbdb33e1f	-0.08752083
41	0xbdba1a26	-0.09087019
42	0x3d2268fc	0.039650902
43	0x3cdf5018	0.027259871
44	0x3d78174c	0.060569093
45	0x3dcdd45e	0.100502715
46	0x3ccac1e8	0.024750665
47	0xbd089776	-0.03334757
48	0x3d83a418	0.06427783
49	0x3dbc9948	0.092089236
50	0x3d53e46c	0.051731512
51	0x3c81948c	0.015817903
52	0xbd04ac3c	-0.032390818
53	0xbd2a70e4	-0.041611567
54	0x3d8d680e	0.069046125
55	0xbd23ef1f	-0.040022966
56	0xbd9ac128	-0.07556373
57	0x3db3ae5e	0.08773492
58	0xbdb4a8c3	-0.08821251
59	0x3d49071c	0.049079046
60	0xbdce2bbd	-0.10066936
61	0x3cfa7f40	0.030578256
62	0xbd031086	-0.03199818
63	0xbc0706d8	-0.008241378
64	0xbdc8ba68	-0.09801179
65	0xbd206e1a	-0.0391675
66	0x3d29b8f4	0.04143615
67	0xbdb87180	-0.090060234
68	0xbd04d7da	-0.032432415
69	0xbd78f0f0	-0.06077665
70	0x3d5668ac	0.052345917
71	0xbc92558c	-0.017863058
72	0x3db9ec40	0.09078264
73	0xbdbc7977	-0.09202855
74	0xbd69a1b1	-0.057038967
75	0xbd1ee894	-0.038796023
76	0x3bc6cdb0	0.0060670003
77	0x3d2f7d54	0.04284413
78	0xbda3f228	-0.08005172
79	0xbda255ad	-0.079264976
80	0xbdafde29	-0.085872956
81	0xbc972478	-0.018450007
82	0x3d868726	0.06568746
83	0x3cdcf468	0.02697201
84	0x3c83dd48	0.016096726
85	0xbd7b54c3	-0.061360132
86	0xbd939cee	-0.07207666
87	0xbc9f9604	-0.019480713
88	0x3c724580	0.014787078
89	0x3dad14ee	0.08451258
90	0xbd0bfa56	-0.034174286
91	0x3cf99a60	0.03046912
92	0x3bf20bf0	0.007386677
93	0xbca09c58	-0.0196058
94	0xbb8ecb80	-0.004357755
95	0xbd6247f9	-0.05524442
96	0xbdaff49e	-0.08591579
97	0x3c032174	0.008003581
98	0x3da2731e	0.07932113
99	0xbd23d23b	-0.039995413
100	0x3dbae008	0.09124762
101	0xbca6d79e	-0.020366486
102	0xbc613e84	-0.013747815
103	0xbabcb8dd	-0.0014398355
104	0x3d714fb0	0.058913887
105	0xbd17c081	-0.03704882
106	0x3d205a16	0.039148413
107	0xbdc4473c	-0.095838994
108	0x3dbee1b2	0.09320392
109	0xbcbf5ff9	-0.023361193
110	0xbd3d45b2	-0.046209045
111	0x3d018805	0.03162386
112	0xbd5d5785	-0.054038543
113	0x3d91401a	0.070923045
114	0xbdadca8b	-0.08485898
115	0x3d016f1c	0.031600103
116	0x3d031c9c	0.032009706
117	0xbdb1227e	-0.08649157
118	0xbdc90d6a	-0.09817012
119	0xbd72b723	-0.059256684
120	0xbda5bf97	-0.080931835
121	0xbc6a144d	-0.014287067
122	0x3dc2d271	0.09512795
123	0x3d8e919a	0.06961365
124	0xbc1856b0	-0.009298012
125	0xbcfedf3c	-0.031112306
126	0x3b720aee	0.0036932784
127	0x3d8ce8b8	0.06880325
128	0x3c5f5dc5	0.013633196
129	0xbdb2ff00	-0.08740044
130	0x3c1b4bfb	0.009478564
131	0x3beea3a0	0.007282689
132	0xbc01bd05	-0.007918601
133	0xbb27b66e	-0.0025590914
134	0xbcadd2e7	-0.02121873
135	0x3d978d73	0.07400026
136	0x3ba195bf	0.004931181
137	0xbdc5ff8c	-0.09667882
138	0xbdb6c808	-0.08924872
139	0xbd9eff3b	-0.07763525
140	0xbd31335d	-0.043261874
141	0x3d37f888	0.044914752
142	0x3d64625f	0.055757876
143	0xbd6aa9f1	-0.057290975
144	0xbcdfa8cc	-0.027302168
145	0xbd8cc7ee	-0.06874071
146	0x3d98c22e	0.07458912
147	0x3dbcae27	0.092129044
148	0xbb623e7b	-0.0034522105
149	0xbd3800c9	-0.044922624
150	0x3dabbd18	0.08385676
151	0x3bc56f19	0.0060252068
152	0x3cc8bd85	0.024504432
153	0x3db0460c	0.086071104
154	0x3d0e0c14	0.034679487
155	0xbd6fea46	-0.05857303
156	0xbd6a6d93	-0.057233404
157	0xbd0a38e6	-0.03374567
158	0x3d0b0b9c	0.03394662
159	0xbce1fc34	-0.02758608
160	0xbb908d60	-0.0044113845
161	0xbd91e8cd	-0.07124481
162	0x3da8e9af	0.082476966
163	0xbc9fd9c2	-0.019513015
164	0x3dcf3918	0.10118312
165	0x3d9a14f2	0.07523526
166	0xbda87b88	-0.08226687
167	0xbdc50b29	-0.09621269
168	0x3d2afcd0	0.041745007
169	0x3cf04358	0.029328987
170	0x3c3e9b20	0.011633664
171	0xbcc319ce	-0.023816016
172	0xbda4e819	-0.080520816
173	0x3dc09fa3	0.09405448
174	0x3ccbdd91	0.024885925
175	0xbbb3e3ef	-0.0054898183
176	0xbdbcf324	-0.09226063
177	0x3d62cc71	0.05537075
178	0x3d8abaa6	0.067738816
179	0xbdcfae8d	-0.10140715
180	0x3cff8768	0.031192496
181	0x3d8c0dad	0.06838546
182	0x3da1c545	0.07898954
183	0xbb222f5b	-0.0024747464
184	0xbc1e50fe	-0.009662865
185	0xbda39633	-0.079876326
186	0xbda1db88	-0.079032004
187	0xbc9ccb9a	-0.019140054
188	0x3cfd8624	0.030947752
189	0xbd299535	-0.04140206
190	0x3db85f83	0.090025924
191	0xbd8accdc	-0.06777355
192	0x3ca8c582	0.020601992
193	0x3d891830	0.066940665
194	0xbd89e59b	-0.06733247
195	0x3c8bf404	0.01708413
196	0xbce8bcad	-0.02841028
197	0xbd05ee5a	-0.032698013
198	0x3d6bc14f	0.0575574
199	0x3d8e9ebd	0.06963871
200	0x3d3f012a	0.04663197
201	0x3d24572a	0.04012219
202	0xb939738b	-0.00017686018
203	0x3d7d8647	0.061895635
204	0xbc99cdca	-0.018774886
205	0x3cb0deac	0.021590553
206	0xbc1d0727	-0.009584225
207	0x3db6b52a	0.08921273
208	0xbd8a1ee5	-0.06744174
209	0x3c4cfaff	0.012511014
210	0xbc3b9278	-0.011448495
211	0x3d29ea70	0.041483343
212	0x3da552fa	0.08072467
213	0x3da11e2a	0.078670815
214	0x3d92324c	0.071384996
215	0xbcfd9a04	-0.03095723
216	0x3d8da867	0.06916886
217	0x3d9330d1	0.07187045
218	0xbdcb886b	-0.09938129
219	0xbd01b702	-0.03166867
220	0x3d39e984	0.045388713
221	0x3d24bf58	0.040221542
222	0x3dc444fe	0.09583472
223	0xbdd18bce	-0.10231744
224	0x3d533084	0.05155994
225	0xbda4464f	-0.08021223
226	0x3d856944	0.065142184
227	0xbb7a3d39	-0.0038183464
228	0xbdc35499	-0.0953762
229	0x3b793150	0.0038023777
230	0xbbcc96e7	-0.006243575
231	0x3dcc0270	0.099614024
232	0x3b788449	0.0037920645
233	0xbd8f88d2	-0.07008518
234	0xbc238d8f	-0.009982481
235	0xbdaab831	-0.08335913
236	0x3b9a0547	0.004700336
237	0x3dc4fade	0.096181616
238	0xbc42da3b	-0.0118928505
239	0xbd92b5e6	-0.071636006
240	0xbda5d4eb	-0.080972515
241	0x3d172e04	0.03690912
242	0x3d88a868	0.06672746
243	0x3dce7c73	0.100823306
244	0x3dcfbe36	0.10143702
245	0xbc66571c	-0.014058854
246	0x3bd15d40	0.00638929
247	0x3d341e85	0.04397442
248	0x3d111a2b	0.035425346
249	0x3c9cb50f	0.019129304
250	0x3d1b5878	0.037926167
251	0x3b8678f9	0.0041037765
252	0xbb8b3170	-0.004247837
253	0x3c7a5168	0.015278198
254	0xbdad6e37	-0.084682874
255	0xbcba7db4	-0.022765018

conv5.bias f4 [64]
0	0xbd183c3c	-0.03716682
1	0xbc4ba879	-0.012430304
2	0xbb312cf4	-0.002703485
3	0xbd0891f0	-0.0333423
4	0xbda13c73	-0.07872858
5	0xbc39953a	-0.011327082
6	0x3c7aaa00	0.01529932
7	0xbd8f2038	-0.06988567
8	0x3c5ed94d	0.013601613
9	0xbc955c7c	-0.018232577
10	0x3a97d400	0.0011583567
11	0xbd0ff2f2	-0.0351438
12	0xbd2c03f2	-0.04199595
13	0xbc51de7b	-0.012809391
14	0xbcd6e598	-0.026232526
15	0xbd44ae4f	-0.048017796
16	0xbd7c874b	-0.061652463
17	0xbd87e232	-0.0663494
18	0xbd73522f	-0.05940455
19	0x3c3bc272	0.011459934
20	0x3bc0869a	0.0058754208
21	0xbd5ce203	-0.05392648
22	0x3cba6266	0.022751998
23	0xbcad3ed0	-0.021148115
24	0x3c397de0	0.011321515
25	0xbd24df6a	-0.040252127
26	0x3b8d6ae6	0.004315722
27	0xbda948a8	-0.08265811
28	0xbcfba950	-0.030720383
29	0xbc524947	-0.0128348535
30	0xbd880642	-0.066418186
31	0x3c8b0d6d	0.016974175
32	0xbcbfec98	-0.023428246
33	0xbcbdfea3	-0.02319271
34	0xbbbece3f	-0.0058229263
35	0xbdbbfe92	-0.09179415
36	0xbc835e68	-0.016036227
37	0x3c86f4d9	0.016474174
38	0xbdb97c4c	-0.09056911
39	0xbc204458	-0.009781919
40	0x3cf87e84	0.030333765
41	0xbdd04cfb	-0.10170933
42	0xbd8eebec	-0.06978592
43	0xbdb484c2	-0.08814384
44	0x3d229330	0.03969115
45	0x3c4654f8	0.012105219
46	0x3cbeddde	0.023299154
47	0x3ccdbf7f	0.025115727
48	0xbd7cbd49	-0.061703954
49	0x3b8b80c4	0.0042572934
50	0xbd221b4c	-0.039576814
51	0xbb1e177e	-0.002412289
52	0x3b57d40d	0.0032932789
53	0xbdacaec9	-0.08431775
54	0x3c8d6fa5	0.01726515
55	0x3b94836b	0.004532268
56	0x3cfa6ffb	0.030570975
57	0xbabe8e70	-0.0014538299
58	0x3d8cb819	0.06871051
59	0x3d2c1dc9	0.042020593
60	0xbdc01b08	-0.09380156
61	0x3cbaeccb	0.02281799
62	0xbda1d67c	-0.07902238
63	0xbc353353	-0.0110596

fc1.weight f4 [128, 864]
0	0xbcb66f6f	-0.022269933
1	0x3c7df32a	0.015499869
2	0x3ca2fcc9	0.019895928
3	0x3d0925c1	0.03348327
4	0x3c9dbde2	0.019255582
5	0x3cb6f26b	0.02233239
6	0xba61e541	-0.00086172303
7	0x3cc269af	0.023732034
8	0xbcbf38d3	-0.023342526
9	0xbc96c2ed	-0.018403495
10	0xbcb63cd1	-0.022245796
11	0x3cd2d56d	0.025736535
12	0x3c232367	0.009957171
13	0xbca50bf7	-0.020147307
14	0x3cd6e6f8	0.026233181
15	0xbb7dd3db	-0.0038731012
16	0xbccc3e4d	-0.024932051
17	0x3beec773	0.00728696
18	0xbba8dc68	-0.0051532276
19	0xbc9d3d85	-0.019194374
20	0xbcd418ae	-0.025890674
21	0xbb0c747c	-0.0021431735
22	0xbcb1c775	-0.021701554
23	0xbccb7ea2	-0.024840657
24	0xbd05174b	-0.032492917
25	0xbcedbd37	-0.029020889
26	0xbd080a67	-0.033213045
27	0xbcccfd48	-0.025023118
28	0xb9708d4f	-0.00022940825
29	0x3afbfea3	0.0019225668
30	0x3ca43d60	0.020048797
31	0xbbd3ab9f	-0.006459668
32	0xbc600dc8	-0.013675161
33	0xbc86590d	-0.016399885
34	0xbcde23e4	-0.027116723
35	0xbcb729bf	-0.022358773
36	0xbcfae18d	-0.03062513
37	0xbb5068dc	-0.0031800782
38	0x3cd44795	0.02591304
39	0xbc934803	-0.017978674
40	0xbca42509	-0.020037191
41	0xbce5924b	-0.02802386
42	0xbc0efee5	-0.008727764
43	0x3d0417d4	0.032249287
44	0xbc6e9a0b	-0.014563094
45	0xbc92aea4	-0.01790554
46	0x3cc52d68	0.024069503
47	0x3c9194d7	0.017771168
48	0xbcc8448f	-0.024446754
49	0x3ca6734c	0.02031865
50	0xbc9f405b	-0.019439867
51	0xbc31d79c	-0.010854628
52	0xbcd5195f	-0.026013074
53	0xbc19e017	-0.009391806
54	0xbb32fe19	-0.0027312099
55	0xbbbc8f74	-0.0057544056
56	0x3bf845df	0.0075766887
57	0xbca93b94	-0.020658292
58	0xbcc8bb3a	-0.02450334
59	0x3ca5af96	0.020225327
60	0xbcb50309	-0.022096174
61	0xbc3d770d	-0.011564028
62	0x3cf6ff97	0.030151172
63	0xbcf42d40	-0.029806733
64	0x3cd8905c	0.026436023
65	0x3c559edc	0.013038363
66	0x3d019cdd	0.031643737
67	0xbcb939dd	-0.0226106
68	0x3bd4372d	0.006476304
69	0xbc143e62	-0.009048076
70	0x3c2cd0bd	0.010547814
71	0x3cda4956	0.026646297
72	0xbcac9d5e	-0.021071132
73	0xbc36b44e	-0.011151386
74	0xbcb3bc8a	-0.021940488
75	0x3ceec5ca	0.029147048
76	0x3c5a6813	0.013330477
77	0xbce8a7ad	-0.028400267
78	0xbc857c38	-0.016294584
79	0x3d06e7ea	0.032936014
80	0x3b91bb1e	0.004447355
81	0x3ceaf44f	0.028680949
82	0xbbd9ece1	-0.0066505526
83	0xbc035039	-0.008014732
84	0x39f9d8a5	0.00047654394
85	0xbb23efdc	-0.0025014794
86	0x3d018717	0.031622972
87	0xbc12a8f2	-0.0089514125
88	0x3cb1ff5e	0.021728214
89	0x3c7cb6dc	0.015424456
90	0x3cfb9ff8	0.030715927
91	0x3c902a58	0.017598316
92	0xbcaf3218	-0.021386191
93	0x3ce365b0	0.02775845
94	0x3cd5c9f3	0.026097273
95	0x3b6215a1	0.0034497755
96	0xbb23571a	-0.0024923743
97	0xbcdcb8e0	-0.026943624
98	0xbc58bf38	-0.013229184
99	0xbcce4d89	-0.025183456
100	0xbc67436f	-0.0141151985
101	0xbadd60fb	-0.0016889864
102	0xbbb884c6	-0.005631062
103	0x3d0902ca	0.033449925
104	0x3c2563d8	0.010094605
105	0xbbbdc5fb	-0.0057914234
106	0x3c9927a3	0.018695658
107	0xbb818e19	-0.003953707
108	0xbc85396d	-0.016262734
109	0x3c3aa483	0.011391762
110	0xbcec6bdf	-0.02886003
111	0x3c3422e6	0.010994649
112	0x3d09a769	0.03360692
113	0xbc64fc40	-0.013976157
114	0x3cb36aa7	0.021901442
115	0xbc84787d	-0.016170735
116	0x3cb8003c	0.02246105
117	0xbc2be6e7	-0.010492063
118	0xbce28b6e	-0.027654376
119	0x3cd85833	0.026409244
120	0x3cb9b454	0.022668995
121	0xbb81eb5b	-0.003964824
122	0xbd076997	-0.033059683
123	0x3c54cd6d	0.01298843
124	0xbd03d11c	-0.032181844
125	0xbca247f0	-0.019809693
126	0xbbe23c3e	-0.006904154
127	0xbc6d0ecb	-0.014468859
128	0x3bc5a932	0.0060321325
129	0xbced8349	-0.028993266
130	0xbc688844	-0.0141926445
131	0xbcf97719	-0.030452298
132	0xbd05230d	-0.03250413
133	0xbc278895	-0.010225435
134	0x3cb5fde1	0.022215785
135	0xbd0423b2	-0.032260604
136	0x3c8355b0	0.01603207
137	0x3d097dec	0.033567354
138	0x3b258ec0	0.0025262088
139	0xbc8729d1	-0.016499432
140	0x3ca8b2a4	0.020592995
141	0xbc4cbb94	-0.012495894
142	0xbba2d600	-0.0049693584
143	0x3c855d94	0.016279973
144	0x3bf9a5f0	0.0076186582
145	0x3ac85ae0	0.0015285872
146	0xbc55a8aa	-0.013040701
147	0xbca8028a	-0.020509023
148	0x3c9af6c2	0.018916491
149	0x3b2c0980	0.002625078
150	0x3b947070	0.004530005
151	0x3cdec1b4	0.027191974
152	0x3c8791f0	0.01654908
153	0x3cab5124	0.020912714
154	0x3ca06984	0.019581564
155	0xbbd02cbc	-0.006352989
156	0xbc2f7418	-0.010708831
157	0xbd06e483	-0.03293277
158	0x3c8bf38a	0.017083902
159	0xbc844edd	-0.016150886
160	0x3b90d068	0.004419375
161	0x3c73d1fc	0.014881607
162	0x3c30be5a	0.010787571
163	0x3d04a195	0.03238066
164	0x3a30faf7	0.0006751264
165	0x3bf59656	0.007494728
166	0xbb89224b	-0.0041849962
167	0xbce65eef	-0.02812144
168	0xbcd659a4	-0.02616579
169	0x3b8164a6	0.003948766
170	0x3cf89805	0.030345926
171	0xbc64eaca	-0.013971994
172	0x3cb9409e	0.02261382
173	0x3d09e821	0.03366864
174	0x3ccdaf2c	0.025107943
175	0xbc989380	-0.018625021
176	0x3cd3e9de	0.025868353
177	0xbaa0a9bf	-0.001225762
178	0x3c25eadb	0.010126795
179	0x3cb476ee	0.022029366
180	0xbb03b4a9	-0.0020096696
181	0xbd040521	-0.032231454
182	0x3d06a0ac	0.032868072
183	0x3b1fff0d	0.0024413497
184	0xbc9ce04e	-0.019149926
185	0x3cc50734	0.024051286
186	0xbb3f54f5	-0.0029194925
187	0x3cc321c0	0.023819804
188	0xbc8f837a	-0.017518748
189	0x3ccff4ec	0.025385343
190	0x3ce326b9	0.027728425
191	0xbcd0bd67	-0.02548094
192	0x3beebd7d	0.0072857724
193	0x3c0ea81b	0.008707072
194	0xbd03ed83	-0.03220893
195	0xbcd05b6f	-0.025434224
196	0x3d010900	0.031502724
197	0x3cab285e	0.020893272
198	0x3cbbbca8	0.022917107
199	0x3bc4b4e3	0.0060030087
200	0x3902927f	0.0001245234
201	0x3d06aed3	0.03288157
202	0xbae2e521	-0.0017310717
203	0xbc23de60	-0.010001749
204	0x3b634f2e	0.0034684646
205	0x3cf82102	0.030289177
206	0x3b0450fb	0.002018987
207	0xbc993adb	-0.018704822
208	0xbc475228	-0.012165584
209	0x3d0623b4	0.032748893
210	0x3c2bd0ef	0.010486825
211	0x3c569ae5	0.013098453
212	0x3c885190	0.016640455
213	0x3d068ddf	0.032850143
214	0xbaef9c48	-0.0018280828
215	0x3bf0239f	0.007328465
216	0xbb151610	-0.0022748746
217	0xbc048592	-0.008088486
218	0xbc844752	-0.01614729
219	0xbc3a660e	-0.011376871
220	0x3b5d56f0	0.0033773743
221	0xbcec6ebe	-0.0288614
222	0xbbeb73fc	-0.0071854573
223	0x3c7fc518	0.015610956
224	0x3bc80658	0.006104272
225	0x3ca8e560	0.020617187
226	0x3ba3aee8	0.0049952157
227	0xbcd31bb7	-0.025770051
228	0x3bcb36c0	0.006201595
229	0x3be19208	0.0068838634
230	0x3cc8a2ca	0.024491686
231	0xbc1992a6	-0.009373343
232	0x3cd4dc98	0.025984094
233	0xbcd65b0a	-0.026166458
234	0xbcb006db	-0.021487644
235	0x3cffda98	0.031232163
236	0x3cf97850	0.030452877
237	0x3c19fd94	0.009398837
238	0x39943a00	0.00028271973
239	0x3afdb920	0.001935754
240	0xbca7c20c	-0.020478271
241	0xbc791272	-0.015202152
242	0x3cf4b5bc	0.029871814
243	0x3c80fe51	0.015746268
244	0xbc0227bc	-0.007944044
245	0xbc7f5f96	-0.015586754
246	0xbc2ec28a	-0.010666499
247	0x3cb7916d	0.022408212
248	0xba1699a4	-0.000574494
249	0x3cb50668	0.022097781
250	0xbbd27663	-0.006422804
251	0x3c03d4d2	0.008046346
252	0x3bb8672b	0.005627533
253	0xbc310164	-0.010803554
254	0xbb8aad20	-0.004232064
255	0xbd03c8c8	-0.0321739

fc1.bias f4 [128]
0	0xbb007ef9	-0.0019606932
1	0xbac06918	-0.0014679758
2	0xbb7fb475	-0.0039017473
3	0x3aa9ac8f	0.0012945103
4	0xbc26a28f	-0.010170593
5	0x3b2d196c	0.0026412858
6	0xbd0ab3ad	-0.03386276
7	0x3b3466cb	0.002752709
8	0x3b1bcf5a	0.0023774714
9	0xbc150e05	-0.009097581
10	0xbc351ca3	-0.011054191
11	0xbc216351	-0.009850339
12	0xbc6f9822	-0.014623674
13	0xbcdb7c93	-0.0267928
14	0xbc9a1b15	-0.018811742
15	0xbb36161d	-0.0027784177
16	0xbc5c4ccf	-0.013446047
17	0xbcb5e823	-0.022205418
18	0xbceac7b5	-0.02865968
19	0x3bd938be	0.0066290786
20	0x3c6a1c42	0.014288964
21	0x3c341f52	0.0109937955
22	0xbc22daaa	-0.009939829
23	0xbc75c5f1	-0.015000806
24	0xbcb2aed3	-0.021811878
25	0xbce35d74	-0.027754523
26	0xbbe0574a	-0.006846343
27	0xbcf11119	-0.029427098
28	0xbc1892f3	-0.009312379
29	0xbca19663	-0.01972503
30	0xbc8965c4	-0.016772158
31	0xbcd9dc15	-0.026594201
32	0xbd0aa23e	-0.033846132
33	0xbc91914d	-0.01776948
34	0xbcceb57a	-0.02523302
35	0xbc3d4318	-0.011551641
36	0x3c76a568	0.015054084
37	0xbc65786c	-0.014005762
38	0xbcd89e67	-0.02644272
39	0x3bc2e9c1	0.005948276
40	0xbcc505c1	-0.024050595
41	0xbcc597b3	-0.024120187
42	0x3c979b79	0.018506752
43	0xbcb61bd0	-0.022230059
44	0x3aa18fae	0.0012326145
45	0xbcb4670d	-0.022021795
46	0xbc7f8dfb	-0.015597816
47	0xba402742	-0.00073300686
48	0xbcb63cc5	-0.022245774
49	0xb909a188	-0.00013125513
50	0x3bc0847d	0.005875169
51	0x3c206c3a	0.009791428
52	0xbce356cf	-0.027751355
53	0xbc5bb8e9	-0.013410785
54	0xbae5c902	-0.0017531218
55	0xbd11414d	-0.035462666
56	0xbae1787f	-0.0017202048
57	0xbbaf62f8	-0.005352374
58	0xbd02fc3a	-0.031978823
59	0x3b092542	0.0020926748
60	0xbcbb88a4	-0.022892304
61	0xbc89eba1	-0.01683599
62	0xbb3563e6	-0.0027677952
63	0xbc5eb45b	-0.013592805
64	0x3c047d08	0.00808645
65	0x3bf9cc4f	0.0076232324
66	0xbc5a1ce0	-0.013312548
67	0xbc8609fb	-0.016362181
68	0xbc174ef6	-0.009235134
69	0xbd09abf6	-0.03361126
70	0xbd159d12	-0.036526747
71	0xbcce2688	-0.025164858
72	0xbc0c800d	-0.008575452
73	0xbbee93d3	-0.0072808056
74	0x3a0c5c02	0.00053542864
75	0xbc4203bc	-0.011841711
76	0xbcc5266b	-0.02406617
77	0xbd141fd9	-0.036163185
78	0xbbb81a84	-0.0056183953
79	0xbd004bdd	-0.03132235
80	0xbd0145a1	-0.031560544
81	0xbc5b8ac3	-0.013399783
82	0x3c2addea	0.010428885
83	0xbc3ca5af	-0.011514111
84	0xbc42f876	-0.011900058
85	0xbb5a802f	-0.0033340564
86	0xbcb4a780	-0.022052526
87	0xbcb42cb8	-0.02199398
88	0xbc39104a	-0.0112953875
89	0xbba11b76	-0.0049166037
90	0xbb053f4c	-0.0020331917
91	0xbd0ab71d	-0.033866037
92	0x3c66bd36	0.014083197
93	0xbc8fe40c	-0.017564796
94	0xbc18bae5	-0.009321903
95	0xbceba695	-0.028765956
96	0xbcc375e3	-0.023859924
97	0xbc6d580a	-0.014486322
98	0xbcb71646	-0.022349488
99	0x3d11c67a	0.035589673
100	0xbcaec551	-0.021334322
101	0xbcaacb39	-0.020848857
102	0x3b0b20af	0.0021229198
103	0x38ec312a	0.000112625145
104	0xbc8f5859	-0.017498182
105	0xb958732a	-0.00020642267
106	0xbca0008c	-0.01953151
107	0x3c1f9d78	0.009742133
108	0xbce3222a	-0.027726252
109	0xbc3c3808	-0.011487968
110	0xbd0be02b	-0.03414933
111	0xbb9b24de	-0.0047346195
112	0xbc453d93	-0.012038606
113	0xbcc1c890	-0.023655206
114	0x3c49ea39	0.012323909
115	0x3b3cb0dc	0.002879194
116	0xbc66c3d0	-0.014084771
117	0x3b8112fb	0.00393903
118	0x3a479601	0.00076136
119	0xbcc51901	-0.024059774
120	0xbb8e7bae	-0.00434824
121	0x39843145	0.0002521371
122	0xbce404fd	-0.02783441
123	0x3b916eb4	0.0044382457
124	0xbca644c0	-0.020296454
125	0xbc0c655c	-0.008569088
126	0xbc33e53b	-0.010979946
127	0xbc7d5285	-0.015461569
