model/v1.pt (torch, 515003 bytes, 13 tensors)

conv1.weight f4 [32, 12, 3]
0	0xbd178ee4	-0.037001505
1	0x3e1776ce	0.14791414
2	0xbba450ed	-0.00501453
3	0x3e6688ca	0.22513118
4	0xbea430f5	-0.320686
5	0xbcd223ab	-0.025651773
6	0x3d97664d	0.07392559
7	0x3d9a6f9a	0.075408176
8	0x3d9fcb2e	0.07802425
9	0xbdf9a737	-0.12190097
10	0xbdae2c36	-0.08504526
11	0x3caf4c8a	0.021398801
12	0x3e1ed810	0.15512109
13	0x3ba76741	0.0051087444
14	0xbc0de1c9	-0.008659788
15	0x3e1ba984	0.15201384
16	0x3dd3a43b	0.10334059
17	0xbe4cb580	-0.19991112
18	0xbd91626d	-0.07098851
19	0x3d18c061	0.03729284
20	0xbe02aa18	-0.12760198
21	0xbc83a36a	-0.016069133
22	0xbdb2e3c2	-0.087348476
23	0xbd0d719c	-0.034532174
24	0xbd8f4c1e	-0.0699694
25	0xbdde3d1f	-0.10851502
26	0xbdf26587	-0.11835771
27	0xbde79a16	-0.113086864
28	0xbe350850	-0.17678952
29	0x3db557c4	0.088546306
30	0x3e32e544	0.1747027
31	0xbe79bc67	-0.24388276
32	0x3e9372b5	0.28798452
33	0x3d4a3d60	0.049374938
34	0x3dee658e	0.11640464
35	0x3d9be6a8	0.076123536
36	0xbca9ee72	-0.020743582
37	0x3eab65b4	0.3347603
38	0x3df67cd7	0.1203553
39	0xbdcb4659	-0.09925527
40	0xbdf5aee2	-0.11996247
41	0x3e9f9b6e	0.3117327
42	0x3db7f19b	0.089816295
43	0x3e2b545e	0.16731402
44	0x3d99a8a0	0.07502866
45	0x3ce1a517	0.027544541
46	0xbd9d3433	-0.07675972
47	0x3b33c9a6	0.0027433424
48	0xbc4f9c04	-0.012671474
49	0xbe3eef33	-0.18645935
50	0xbd9f8940	-0.0778985
51	0x3e9ef3b5	0.3104531
52	0xbd0f7454	-0.03502305
53	0xbd22a01d	-0.039703477
54	0xbbdb808d	-0.006698674
55	0x3d595bef	0.05306619
56	0x3e584090	0.21118379
57	0xbce1ed40	-0.02757895
58	0xbd03668c	-0.03208022
59	0xbe137cf4	-0.14403135
60	0x3e07a6fd	0.13247295
61	0xbc99efe8	-0.018791154
62	0x3e168a44	0.14701182
63	0xbe4ff368	-0.20307696
64	0x3d6c501b	0.057693582
65	0xbde5ffef	-0.11230456
66	0x3da273c3	0.07932236
67	0xbe12e4f8	-0.14345157
68	0x3e66026d	0.22461863
69	0x3b8e35c2	0.0043399045
70	0xbed131bc	-0.40858257
71	0xbe652059	-0.22375621
72	0x3efbc388	0.49172616
73	0x3e70aee3	0.23504214
74	0xbee1737a	-0.44033414
75	0x3d29c916	0.041451536
76	0x3e3b3eec	0.18285722
77	0xbeb4159d	-0.3517274
78	0x3e1f4dbd	0.15556999
79	0xbe060ab6	-0.13090023
80	0xbdd7de7d	-0.10540483
81	0x3e301fa4	0.1719957
82	0xbe2c8733	-0.1684845
83	0x3cdc536c	0.026895247
84	0x3e3eb3a7	0.1862322
85	0xbdfa246b	-0.122139774
86	0x3df11c6a	0.11772998
87	0x3c8b0a01	0.016972544
88	0xbcb9a0b8	-0.022659644
89	0x3e637634	0.2221306
90	0xbe8c9a1c	-0.27461326
91	0x3d452248	0.048128396
92	0x3d8d4bec	0.068992466
93	0xbdf28178	-0.118411005
94	0x3df717d8	0.12065095
95	0x3d570501	0.052495006
96	0x3c4a399a	0.012342835
97	0xbe4f21be	-0.20227715
98	0xbe0cb2ef	-0.13740133
99	0xbe69e7fd	-0.22842403
100	0xbd966a42	-0.07344486
101	0x3d0202d7	0.03174099
102	0xbdb29a58	-0.08720845
103	0xbdac5b13	-0.084158085
104	0xbe0dcbd9	-0.13847293
105	0xbc87a6b2	-0.016558979
106	0x3db8a048	0.09014946
107	0xbe8421dd	-0.25807086
108	0x3ea90963	0.33014974
109	0xbe7bf242	-0.24604133
110	0xbf0c293a	-0.54750407
111	0x3c93964d	0.018016005
112	0x3e0d90ce	0.1382477
113	0xbbe34e73	-0.006936842
114	0xbe67e0f5	-0.22644408
115	0x3e1e8ff4	0.15484601
116	0x3e9bbe6a	0.30418712
117	0x3e784ffb	0.2424926
118	0x3df44495	0.119271435
119	0xbde1f1b2	-0.11032428
120	0x3d78b614	0.06072052
121	0x3dc256ac	0.094891876
122	0x3d8a360b	0.06748589
123	0xbe220259	-0.15821208
124	0xbda46bd0	-0.08028376
125	0xbe3d6afc	-0.18497843
126	0x3e2061b8	0.15662277
127	0xbe1b4fe9	-0.15167202
128	0x3e6fe841	0.23428442
129	0x3e37d640	0.17952824
130	0x3dde70fd	0.108613946
131	0x3c902d64	0.017599769
132	0x3dc63354	0.09677759
133	0xbd737a07	-0.059442546
134	0xbe2c380b	-0.16818254
135	0x3d65a0a2	0.056061395
136	0x3e0d35c9	0.13790049
137	0xbe9c85f1	-0.3057094
138	0xbe0505fb	-0.12990563
139	0x3d6c7773	0.057731103
140	0x3d112a5b	0.035440784
141	0x3e35f9e4	0.17771107
142	0xbe7a8fd9	-0.24468936
143	0x3e5f80cb	0.21826474
144	0xbe9f459a	-0.3110779
145	0x3ddc2775	0.10749713
146	0xbe907fbc	-0.28222454
147	0x3e626366	0.2210823
148	0xbec867f4	-0.3914181
149	0x3e7ae363	0.24500804
150	0xbe80644b	-0.25076517
151	0xbe893c0f	-0.26803634
152	0x3dbe12ce	0.092809305
153	0x3bf4d219	0.0074713347
154	0xbcc88f9c	-0.02448254
155	0x3c08e5b8	0.0083555505
156	0x3e877bef	0.2646174
157	0x3d077122	0.033066876
158	0x3d439702	0.047751434
159	0x3e9a823a	0.3017748
160	0x3e217d97	0.15770565
161	0xbe7e0c8a	-0.24809471
162	0x3e49db98	0.19712675
163	0x3e263cee	0.1623418
164	0x3d578f9f	0.052627202
165	0xbd25a4f8	-0.04044053
166	0xbd0595f8	-0.032613724
167	0x3d379411	0.04481894
168	0x3e047ec3	0.12938981
169	0xbdae101c	-0.08499166
170	0xbed0fa2e	-0.40815872
171	0xbd9715f5	-0.07377235
172	0xbe33a854	-0.17544681
173	0xbe92e3ed	-0.2868952
174	0x3e57fa88	0.21091664
175	0xbe27901b	-0.16363566
176	0x3e32f355	0.17475636
177	0xbd630429	-0.05542389
178	0x3c3a0091	0.011352674
179	0xbd91a686	-0.0711184
180	0xbd24f47d	-0.040272225
181	0x3e87955a	0.26481134
182	0xbd94769c	-0.072491854
183	0x3ecb156c	0.3966478
184	0xbee5feee	-0.44921058
185	0x3e08137e	0.13288686
186	0xbe703aba	-0.23459902
187	0x3d0405e6	0.032232188
188	0x3e363597	0.1779388
189	0xbef2c01a	-0.47412187
190	0x3d92f7bc	0.07176158
191	0xbd893230	-0.06699026
192	0x3c936fcf	0.01799765
193	0x3c9f4c8b	0.019445678
194	0xbe653161	-0.22382118
195	0x3e61862e	0.22023842
196	0x3e896d74	0.2684132
197	0x3de87a04	0.11351398
198	0x3d11d4ca	0.035603322
199	0x3e10c8b8	0.14139068
200	0x3df90c09	0.12160499
201	0xbd0c64c2	-0.034275778
202	0xbe181895	-0.14853127
203	0x3da4a7f0	0.08039844
204	0xbd9802cf	-0.07422411
205	0xbdce5dab	-0.100764595
206	0xbc4498fd	-0.011999366
207	0xbe73f3a2	-0.23823407
208	0x3b34e93b	0.0027604837
209	0x3e52e8f5	0.20596679
210	0x3de75e58	0.112972915
211	0x3e15dad9	0.14634265
212	0xbe617c2a	-0.22020021
213	0x3e75904a	0.23980823
214	0xbeb61a14	-0.3556677
215	0xbda853b6	-0.082190916
216	0xbd4a87fa	-0.049446084
217	0x3e2e47fd	0.17019649
218	0x3ebb5ab7	0.36592647
219	0xbec2c39d	-0.38039866
220	0xbeee56ff	-0.46550748
221	0x3ecb3342	0.39687544
222	0x3e3f05b9	0.18654527
223	0x3e8086ad	0.2510275
224	0x3e284b9c	0.16435093
225	0x3e82398f	0.2543454
226	0xbd40932e	-0.04701536
227	0x3ba18f65	0.004930424
228	0xbd18c5ea	-0.03729812
229	0x3d3c895d	0.046029437
230	0x3d4a31b7	0.049363818
231	0xbe8d3e3d	-0.27586547
232	0xbe78fb4d	-0.24314614
233	0xbd272474	-0.04080625
234	0x3e17def1	0.14831139
235	0x3e03f586	0.12886629
236	0x3e16f3b0	0.14741397
237	0xbde3017b	-0.11084267
238	0xbd0a764c	-0.033804223
239	0xbe9ca53a	-0.30594808
240	0x3e66dcc5	0.22545154
241	0x3e96340a	0.29336578
242	0x3e7e0050	0.24804807
243	0xbdd4bc66	-0.10387497
244	0x3e03bea2	0.1286569
245	0x3e386d9a	0.1801056
246	0x3d0087e5	0.0313796
247	0xbe56f8eb	-0.20993392
248	0x3da237a1	0.079207666
249	0xbe4b1f08	-0.19836056
250	0xbdacf636	-0.084453985
251	0xbe9800a6	-0.29687995
252	0xbe43063d	-0.19045348
253	0xbea26f0e	-0.31725353
254	0x3c9c9216	0.019112628
255	0xbea5ce30	-0.3238387

conv1.bias f4 [32]
0	0x3d8f57c2	0.0699916
1	0xbc0863b8	-0.008324556
2	0x3d8cc7d5	0.068740524
3	0x3d1a80f8	0.03772065
4	0x3de90f8b	0.11379918
5	0xbd3eae90	-0.046553195
6	0x3d18d6b7	0.037314143
7	0xbdc1633d	-0.09442756
8	0xbcbe41c2	-0.023224715
9	0x3e269386	0.16267213
10	0xbd4b8f71	-0.049697343
11	0xbb5e4a06	-0.0033918633
12	0xbdb3f5e2	-0.08787133
13	0x3dfc91c0	0.12332487
14	0x3cdb2167	0.026749326
15	0x3e243441	0.16035558
16	0xbbd08062	-0.0063629607
17	0xbd8277ca	-0.06370504
18	0xbbabfdbd	-0.005248754
19	0xbe41d92d	-0.18930502
20	0xbd8393f0	-0.06424701
21	0x3d1eb3fb	0.03874586
22	0xbe09e4e5	-0.13466223
23	0xbc5158f3	-0.012777555
24	0x3e12615f	0.14294957
25	0xbdc52b8f	-0.09627449
26	0xbc92151e	-0.017832335
27	0xbc56c6e6	-0.0131089445
28	0xbd187dc4	-0.037229314
29	0xbcc16158	-0.023605987
30	0x3de2f080	0.11081028
31	0xbd84a84b	-0.06477412

conv2.weight f4 [32, 32, 3]
0	0x3dc731c3	0.09726288
1	0x3d9f71fd	0.077854134
2	0xbef5d698	-0.48015285
3	0x3e48be19	0.19603767
4	0x3dd2a1f7	0.102847986
5	0x3d5cc4c8	0.053898603
6	0xbe885945	-0.26630607
7	0x3d91860b	0.07105645
8	0x3d1adc5b	0.037807804
9	0xbea13bfb	-0.31491074
10	0x3db67041	0.089081295
11	0xbd161037	-0.036636557
12	0x3d94e6cf	0.07270586
13	0x3e4c9723	0.19979529
14	0x3da19103	0.07888987
15	0xbe2665f9	-0.16249837
16	0x3d88f1a9	0.06686718
17	0xba862448	-0.0010234201
18	0x3e2c97d9	0.168548
19	0x3e2ad3dc	0.1668238
20	0x3c7d09d9	0.015444242
21	0xbd85ad3a	-0.06527181
22	0xbe0f82ac	-0.14014691
23	0xbd80631e	-0.06268905
24	0xbc91e229	-0.017808037
25	0x3e8413d2	0.25796372
26	0xbd98ce09	-0.07461173
27	0xbd89f112	-0.06735434
28	0x3db04a57	0.08607929
29	0xbc5d6119	-0.013511919
30	0xbe457e18	-0.19286382
31	0x3e188611	0.14894892
32	0x3e84e23d	0.25953856
33	0x3e60ff88	0.21972477
34	0xbddc0b24	-0.107443124
35	0x3e537e2c	0.206536
36	0xbee38653	-0.4443842
37	0x3cb71d35	0.022352794
38	0xbf1016b4	-0.5628464
39	0x3e467740	0.19381428
40	0xbd0d9578	-0.034566373
41	0xbcc63d4e	-0.024199154
42	0xbdad8fcd	-0.084746934
43	0x3dbef1cd	0.093234636
44	0xbe3a742b	-0.18208377
45	0x3d673063	0.05644263
46	0xbe2b0675	-0.16701682
47	0xbecf744a	-0.4051841
48	0xbdff3e13	-0.124630116
49	0xbea3db4b	-0.32003245
50	0xbd882e24	-0.066494256
51	0x3d9ef424	0.0776141
52	0xbe2ab97f	-0.16672324
53	0xbf1daa56	-0.61588037
54	0xbe8049dd	-0.25056353
55	0xbe5588de	-0.20852992
56	0xbdb66f35	-0.0890793
57	0x3df780b1	0.12085093
58	0x3dc7d6b7	0.097577505
59	0x3e6a2fcf	0.228698
60	0x3c66a079	0.014076346
61	0xbd995ff0	-0.07489002
62	0x3e96ec4b	0.29477152
63	0x3e8772ca	0.26454765
64	0x3e00c8ee	0.12576649
65	0x3d0276fe	0.03185176
66	0xbe9a1c1e	-0.30099577
67	0xbd7fad4c	-0.06242113
68	0x3c6470a0	0.0139428675
69	0x3d808c61	0.06276775
70	0x3e866f31	0.26256707
71	0x3dd90f18	0.10598582
72	0xbc4147fe	-0.011796949
73	0xbe37927f	-0.17926978
74	0xbe5b7de1	-0.21434738
75	0x3d958417	0.07300585
76	0xbe7071b3	-0.23480873
77	0x3cc30e55	0.023810545
78	0xbda18de3	-0.07888391
79	0xbe049cd5	-0.12950452
80	0xbdae85e4	-0.08521631
81	0xbb9b5f7e	-0.004741608
82	0xbd8edf1d	-0.06976149
83	0xbda2fa11	-0.07957853
84	0xbed2e448	-0.4118979
85	0x3e784982	0.24246791
86	0x3dcbf0db	0.09958049
87	0xbd29768e	-0.04137283
88	0xbcf0fcbd	-0.02941739
89	0xbeca9493	-0.39566478
90	0xbe2d585d	-0.16928239
91	0x3d80125a	0.062535
92	0x3e2fd805	0.17172249
93	0xbb6b5273	-0.0035907298
94	0xbe515404	-0.20442206
95	0xbed7510e	-0.42054027
96	0xbd2ffae6	-0.042963885
97	0x3d748e57	0.05970606
98	0x3cc0870b	0.023501894
99	0x3d9a818d	0.07544241
100	0x3d89b920	0.06724763
101	0xbddcaa12	-0.10774626
102	0x3d9bd1eb	0.07608398
103	0xbb819132	-0.003954076
104	0x3e8193ed	0.2530817
105	0x3e1c2382	0.1524792
106	0x3daf5ad4	0.08562246
107	0x3ca00dad	0.019537771
108	0x3e7cb2b0	0.24677539
109	0x3c898db9	0.016791211
110	0xbe7cc4de	-0.24684474
111	0xbce27be6	-0.02764697
112	0x3d2fc9d9	0.042917106
113	0xbde53d69	-0.11193354
114	0x3df37deb	0.11889251
115	0x3de893a5	0.11356286
116	0x3da8ea8b	0.082478605
117	0xbe3521a8	-0.1768862
118	0xbb2179a0	-0.0024639145
119	0xbd686288	-0.05673459
120	0x3d84ca33	0.06483879
121	0x3dec9c68	0.115532696
122	0x3daba8e8	0.08381826
123	0x3e758fd2	0.23980644
124	0x3d414f3e	0.047194712
125	0x3e15202b	0.14563052
126	0x3d4a08e5	0.04932489
127	0xbd496322	-0.049166806
128	0xbe6f8086	-0.23388872
129	0xbea29ff4	-0.3176266
130	0xbd80ba36	-0.06285517
131	0x3e3b03cc	0.18263167
132	0x3e35cba5	0.17753465
133	0xbe093aa8	-0.13401282
134	0xbd86af7b	-0.06576439
135	0xbdf23b72	-0.118277445
136	0x3e3da2f2	0.1851919
137	0xbe120f37	-0.14263617
138	0x3d044080	0.032288074
139	0xbd9a3b95	-0.075308956
140	0xbe256383	-0.16151242
141	0x3b2237cd	0.0024752498
142	0x3ddac84c	0.10682735
143	0xbd2b1055	-0.041763622
144	0xbe27a667	-0.16372071
145	0xbdb3cc29	-0.08779175
146	0x3ed1824e	0.40919727
147	0x3dc42f28	0.09579307
148	0xbdf99530	-0.121866584
149	0x3e17f308	0.14838803
150	0x3d9ecc07	0.07753759
151	0x3df13766	0.117781445
152	0x3ec53cff	0.385231
153	0x3e4d8971	0.20071961
154	0xbc0e7f74	-0.008697379
155	0xbe49c759	-0.19704951
156	0xbe1c7ec5	-0.15282734
157	0x3da8832a	0.082281426
158	0xbe1e0253	-0.15430574
159	0xbe3b05d8	-0.18263948
160	0x3df30ec4	0.11868051
161	0x3eb5a61f	0.35478303
162	0xbc6d9692	-0.014501231
163	0xbe4cd285	-0.20002182
164	0x3da18337	0.07886355
165	0x3e46ce5b	0.19414656
166	0xbd50a1be	-0.0509355
167	0xbe90a83b	-0.2825335
168	0xbd21e720	-0.03952706
169	0xbdb7e514	-0.0897924
170	0x3c921ffe	0.01783752
171	0xbe065fdf	-0.1312251
172	0xbdc20385	-0.094733275
173	0x3d9a1a71	0.075245745
174	0xbc9767b1	-0.018482061
175	0x3e1a12b8	0.15046203
176	0x3d479e5c	0.048735008
177	0x3dfd128d	0.12357054
178	0x3df511ec	0.11966309
179	0x3d0067f1	0.031349126
180	0x3d94cbc4	0.07265428
181	0x3e08cd72	0.13359621
182	0x3e614482	0.2199879
183	0x3db62e0f	0.08895504
184	0x3ddecde2	0.10879113
185	0x3e222b21	0.15836765
186	0x3cbc20f6	0.022964936
187	0x3ccb1120	0.02478844
188	0xbd1b4845	-0.03791072
189	0x3e3885ee	0.1801984
190	0x3df143c6	0.11780505
191	0x3eb28aa8	0.3487141
192	0x3c9f3266	0.019433212
193	0x3da08c27	0.07839232
194	0x3e263d43	0.16234307
195	0x3dd2425d	0.10266564
196	0xbc993aa5	-0.018704722
197	0x3ddd3483	0.108010314
198	0xbe442863	-0.19156031
199	0x3d38aedc	0.045088634
200	0xbd4bbe54	-0.049742058
201	0xbedf4e7a	-0.4361456
202	0x3e4831a7	0.19550191
203	0xbe8fa6b7	-0.2805688
204	0x3e5d068d	0.2158453
205	0x3e465e70	0.19371963
206	0xbec25bde	-0.37960714
207	0x3e1a9b32	0.15098265
208	0x3df7cdbe	0.12099789
209	0x3d0f4ecc	0.034987256
210	0x3dc43d65	0.095820226
211	0x3e186255	0.1488126
212	0x3e83faab	0.25777182
213	0x3db2411f	0.08703827
214	0xbc365f43	-0.011131111
215	0x3e361a9c	0.17783588
216	0x3c00945d	0.007847873
217	0x3e3b0bb2	0.1826618
218	0xbd884d49	-0.06655366
219	0xbdb0616b	-0.08612331
220	0x3e0e6467	0.13905488
221	0x3eb42f95	0.35192552
222	0x3be49115	0.006975303
223	0x3d2522b8	0.040316314
224	0x3d0fed3e	0.03513836
225	0xbd35c538	-0.044377536
226	0x3d17fa45	0.03710391
227	0x3ea213bd	0.31655684
228	0x3e28c8de	0.16482875
229	0x3de783e6	0.113044545
230	0x3dbb581d	0.09147666
231	0x3c93b71a	0.018031646
232	0xbde243cf	-0.1104809
233	0x3e3dc69a	0.18532792
234	0x3c945f30	0.018111795
235	0xbdad74dd	-0.084695555
236	0xbe81521b	-0.25257954
237	0x3dc4ca75	0.09608928
238	0x3d099b50	0.033595383
239	0xbd226793	-0.039649557
240	0xbdd361bf	-0.10321378
241	0xbddde05f	-0.10833811
242	0x3ccd5c23	0.025068348
243	0x3e928f6a	0.2862504
244	0x3d1414b3	0.036152553
245	0x3e43f2fb	0.19135658
246	0xbe926cc9	-0.2859862
247	0x3d9d0482	0.076668754
248	0xbcd06721	-0.0254398
249	0xbe31f76e	-0.17379543
250	0x3e37bb71	0.17942597
251	0x3eca6045	0.39526573
252	0x3dff33d4	0.12461057
253	0xbd3ed44f	-0.046589192
254	0xbeaa8f25	-0.33312336
255	0x3e5f2860	0.21792746

conv2.bias f4 [32]
0	0x3dc5898a	0.09645374
1	0xbdc2ad3a	-0.095056966
2	0xbdf771b4	-0.12082234
3	0xbe2e0c25	-0.1699682
4	0xbe11fb1e	-0.1425595
5	0xbdb55e72	-0.08855905
6	0xbaa8b618	-0.0012871651
7	0xbdfc3a57	-0.12315815
8	0xbdb5921e	-0.0886576
9	0xbd203dd1	-0.039121453
10	0xbdf86cad	-0.12130103
11	0xbc70821a	-0.014679456
12	0x3e1c244c	0.15248221
13	0xbda5ec71	-0.08101738
14	0xbdb200c6	-0.08691554
15	0x3c92f150	0.017937332
16	0xbddd3ce7	-0.10802632
17	0xbd3ef1a1	-0.046617154
18	0xbda65ab7	-0.08122771
19	0xbdde5ca7	-0.10857516
20	0xbbf14ae9	-0.0073636663
21	0xbd950e88	-0.07278162
22	0xbccd4dd2	-0.025061522
23	0x3c9c0d55	0.019049326
24	0xbdd24661	-0.1026733
25	0xbd372731	-0.04471511
26	0x3bdcb6c9	0.006735657
27	0xbd779319	-0.060443018
28	0x3e22a1bf	0.15882014
29	0xbe101938	-0.1407212
30	0x3c45fcd4	0.012084205
31	0xbcf5b299	-0.029992389

conv3.weight f4 [32, 32, 3]
0	0x3d9e51ef	0.07730471
1	0x3e2a26e6	0.16616401
2	0xbec2fa38	-0.38081527
3	0x3d0c6083	0.03427173
4	0x3e4ac5ac	0.19801968
5	0xbd69738a	-0.056994952
6	0x3e83374e	0.25628132
7	0xbda2d548	-0.079508364
8	0xbe50253d	-0.20326705
9	0x3cd85d65	0.026411721
10	0x3d72c4a7	0.059269574
11	0xbe16e4ff	-0.14735793
12	0x3d0f1d2d	0.034939934
13	0x3d3395a9	0.0438439
14	0x3da7b6bf	0.08189153
15	0xbd84d8d9	-0.06486673
16	0xbda40895	-0.080094494
17	0x3d96089f	0.07325863
18	0xbe27cd81	-0.16386987
19	0xbe77950c	-0.2417795
20	0xbb9c1fee	-0.0047645485
21	0xbd963ac3	-0.07335427
22	0xbd7df7b4	-0.062003806
23	0xbdc2ae40	-0.09505892
24	0x3e2fdaa4	0.17173249
25	0xbd58e321	-0.052950982
26	0x3e6b475e	0.22976443
27	0x3e87a8e3	0.26496038
28	0xbe9bf6ce	-0.30461735
29	0xbe10eca8	-0.14152777
30	0xbc9ec155	-0.019379297
31	0xbdb8c393	-0.09021678
32	0x3d19e2b3	0.037569713
33	0x3e916f56	0.28405255
34	0x3e02bde8	0.12767756
35	0xbc37a32f	-0.01120834
36	0xbe64ca41	-0.22342779
37	0xbdcd9ec2	-0.10040046
38	0xbcb39e18	-0.02192597
39	0x3e0638c5	0.13107593
40	0x3d329ff5	0.04360958
41	0x3c92f922	0.017941061
42	0xbdd3c2e8	-0.1033991
43	0xbc87a4b2	-0.016558025
44	0x3b90edc4	0.004422875
45	0x3dc2223c	0.09479186
46	0xbe956246	-0.2917654
47	0x3e4d8c44	0.20073038
48	0x3bc5fda8	0.006042201
49	0xbd8d9c6d	-0.069146015
50	0xbda80efc	-0.08205983
51	0x3d6eea4e	0.05832892
52	0x3b14413c	0.002262189
53	0xbdc08dd3	-0.09402051
54	0xbda90a07	-0.08253866
55	0xbb83f480	-0.0040269494
56	0x3bad1a45	0.0052826726
57	0x3cfa9e9f	0.030593215
58	0xbdbbfd9a	-0.0917923
59	0x3d3ea3a5	0.046542782
60	0xbe04be7a	-0.12963286
61	0xbdb2b11f	-0.087251894
62	0xbb21a04e	-0.00246622
63	0xbe3637d1	-0.1779473
64	0xbdc3d2b6	-0.09561674
65	0xbd0b71c7	-0.034044053
66	0xbde2e926	-0.11079626
67	0xbe925023	-0.28576764
68	0x3c864b33	0.01639328
69	0xbe13dfb4	-0.14440805
70	0xbdf84127	-0.12121802
71	0x3e032581	0.12807275
72	0x3d74979d	0.059714902
73	0x3e5420ff	0.20715712
74	0x3e4f2d86	0.2023221
75	0x3e35a487	0.17738543
76	0x3bc7e0ac	0.006099781
77	0x3d181a9d	0.037134755
78	0xbdabf88c	-0.08397016
79	0xbf0405cb	-0.5157134
80	0xbd9c8f98	-0.07644576
81	0x3d4ce469	0.050022516
82	0xbe47927d	-0.19489475
83	0x3dca4a63	0.098774694
84	0xbdcad4d0	-0.09903872
85	0x3e23b2a4	0.15986115
86	0xbd3dd556	-0.04634603
87	0x3cc455d8	0.023966715
88	0xbcb14f7b	-0.021644345
89	0xbe25a080	-0.16174507
90	0x3dbfcf94	0.09365764
91	0xbddaf478	-0.1069116
92	0xbda1f5cd	-0.07908211
93	0xbd9f91ab	-0.07791456
94	0x3e1144f9	0.14186467
95	0x3e56baea	0.2096974
96	0xbe223bc4	-0.15843111
97	0x3da2aaae	0.07942711
98	0xbe07636f	-0.13221525
99	0xbbff942e	-0.007799647
100	0xbe75d9f5	-0.24008925
101	0x3daf665e	0.08564447
102	0x3e220c10	0.15824914
103	0xbe9cb747	-0.3060858
104	0xbd9e8927	-0.077410035
105	0xbe00c2d8	-0.12574327
106	0xbd60c528	-0.054875523
107	0x3c88f60a	0.016718883
108	0x3bbb545f	0.005716845
109	0xbd306e76	-0.043074094
110	0x3cdca3ec	0.026933633
111	0x3e8a5219	0.2701576
112	0xbe5bb941	-0.21457388
113	0xbd149454	-0.03627427
114	0xbe3c2ca2	-0.18376401
115	0x3dc31305	0.09525112
116	0xbd580f92	-0.052749224
117	0xbdd25539	-0.10270161
118	0xbce8b6db	-0.028407505
119	0xbd810bc9	-0.06301076
120	0xbcf0c799	-0.02939205
121	0xbe03704c	-0.12835807
122	0xbd2afd9d	-0.04174577
123	0xbd82ed5c	-0.06392929
124	0xbe47b7d5	-0.1950372
125	0xbcefd235	-0.02927504
126	0xbd8acb10	-0.06777012
127	0xbb13a8da	-0.0022531063
128	0x3da82a2d	0.082111694
129	0xbde5246f	-0.1118859
130	0xbe2934e2	-0.1652408
131	0xbd667e72	-0.05627293
132	0x3dd3df9c	0.103453845
133	0x3df12fec	0.117767185
134	0x3e726e28	0.23674834
135	0xbd82494d	-0.06361637
136	0xbc49b80d	-0.0123119475
137	0xbdd62943	-0.10457089
138	0xbdef6231	-0.116886504
139	0x3e32db10	0.17466378
140	0xbe8caa69	-0.27473763
141	0x3d91f85f	0.07127451
142	0x3d903e0a	0.07043083
143	0xbe90cb62	-0.2828017
144	0xba605655	-0.00085577864
145	0x3d658168	0.056031615
146	0xbd362117	-0.04446515
147	0x3d6eb94d	0.058282185
148	0xbc88e063	-0.016708558
149	0xbe69ab79	-0.22819318
150	0xbee34b36	-0.4439332
151	0x3e0d2ed3	0.13787393
152	0xbe088422	-0.13331655
153	0xbce09032	-0.027412508
154	0xbcaeedb9	-0.02135359
155	0x3db3ce50	0.08779585
156	0xbea462f8	-0.32106757
157	0x3e3749ce	0.17899248
158	0xbdb41137	-0.08792346
159	0xbd822626	-0.063549325
160	0x3e314203	0.17310338
161	0xbe0fa202	-0.14026645
162	0xbe06875b	-0.13137572
163	0x3da167cb	0.07881125
164	0xbcd7864c	-0.026309155
165	0xbd54bffa	-0.051940896
166	0x3df860e3	0.12127855
167	0xbdc69f6c	-0.09698376
168	0xbe1d55e6	-0.15364799
169	0xbe057796	-0.130339
170	0xbc74d663	-0.014943692
171	0x3dfd24f5	0.123605646
172	0xbdb91219	-0.09036655
173	0x3c9a8083	0.018860107
174	0x3ccf0f2d	0.025275791
175	0xbd1b1a89	-0.037867103
176	0xbeb6ebe6	-0.3572685
177	0x3dd28ecd	0.10281143
178	0xbe4ad3ef	-0.19807409
179	0xbe729177	-0.23688303
180	0x3e3aabf3	0.18229656
181	0x3b6ceaba	0.003615065
182	0x3e7436e8	0.2384907
183	0x3cfdee83	0.03099752
184	0xbe31cbf9	-0.17362966
185	0xbe69172f	-0.2276275
186	0xbd8bceea	-0.06826575
187	0x3c94e969	0.018177705
188	0xbd097c7e	-0.03356599
189	0x3da7a009	0.08184821
190	0xbe1da812	-0.15396145
191	0xbda932f1	-0.082616694
192	0xbda3c2ca	-0.079961374
193	0x3d233426	0.039844655
194	0xbd284876	-0.04108473
195	0x3c320489	0.010865339
196	0x3cf85c4c	0.030317448
197	0xbd22de62	-0.039762862
198	0x3d976da2	0.07393958
199	0xbda09421	-0.07840753
200	0x3dc021a6	0.09381418
201	0xbd955091	-0.072907574
202	0xbdafd798	-0.08586043
203	0xbd1d2d21	-0.038373116
204	0x3da5bb2e	0.08092342
205	0xbc7a6310	-0.015282407
206	0x3d9f9ae6	0.077932164
207	0x3d2d707c	0.0423436
208	0xbd8a89ec	-0.06764588
209	0x3d7dcf22	0.061965115
210	0xbb94241a	-0.004520905
211	0x3d65227d	0.055941094
212	0xbdbd4926	-0.092424676
213	0xbd843b6a	-0.06456645
214	0x3c5e3760	0.013563007
215	0x3c9b04cc	0.018923186
216	0xbd2a20b8	-0.04153511
217	0x3c3ca20e	0.011513246
218	0x3d10809d	0.035278905
219	0x3d4181bd	0.04724287
220	0xbcd7523e	-0.026284333
221	0xbd8e3d77	-0.06945317
222	0x3d132048	0.035919458
223	0x3c4411f8	0.011967175
224	0xbd2c5a2d	-0.042078186
225	0xbd409b54	-0.047023132
226	0xbd38aa16	-0.04508408
227	0xbb2d0ece	-0.002640653
228	0x3cb47f49	0.02203335
229	0xbdf28023	-0.118408464
230	0xbbf6823a	-0.0075228484
231	0x3d4137f8	0.047172517
232	0xbc88106e	-0.016609397
233	0xbdac79d1	-0.08421672
234	0x3d883acb	0.06651839
235	0xbc865f20	-0.016402781
236	0xbdd991ab	-0.10623487
237	0xbd9774bd	-0.07395313
238	0xbdee55a5	-0.11637429
239	0x3d0ec2d7	0.034853783
240	0x3dae48a6	0.0850995
241	0xbd96f5fe	-0.07371138
242	0x3d1535cc	0.036428258
243	0x3d4fe044	0.050750986
244	0x3d782108	0.060578376
245	0x3d06a9a3	0.032876622
246	0xbdceb9d8	-0.10094041
247	0x3d84f109	0.06491286
248	0xbdc5ed02	-0.09664346
249	0xbc11ab40	-0.008890927
250	0x3d6f7ae0	0.058466792
251	0x3c97857f	0.018496273
252	0xbd81fd9a	-0.06347199
253	0xbb2ce4af	-0.0026381423
254	0xbd824c23	-0.06362178
255	0x3d83c0e9	0.06433279

conv3.bias f4 [32]
0	0xbd5ace92	-0.053419657
1	0x3e59dafa	0.21274939
2	0xbdfa4e70	-0.12221992
3	0x3c161f5a	0.009162748
4	0x3d9e3956	0.0772578
5	0xbdd7d8e2	-0.10539414
6	0x3dfc31e1	0.12314201
7	0xbda9d3ab	-0.082923256
8	0x3dce36c1	0.10069037
9	0xbe149665	-0.14510496
10	0xbd4af605	-0.04955103
11	0x3df53222	0.11972453
12	0x3cb76969	0.02238913
13	0xbd8bde18	-0.068294704
14	0xbdc05ec1	-0.09393073
15	0xbcc9b5e5	-0.024622867
16	0xbe26b61f	-0.16280411
17	0xbc1dc703	-0.009629968
18	0xbdad31da	-0.08456774
19	0x3c952acf	0.01820889
20	0xbdf1471b	-0.117811404
21	0x3d7cf87b	0.061760407
22	0x3d295c5c	0.041347846
23	0x3cfc8e1b	0.03082948
24	0xbdec4cf7	-0.115381174
25	0xbe436a90	-0.19083619
26	0x3d724843	0.059150945
27	0xbd10070a	-0.035162963
28	0x3d07ebeb	0.033183973
29	0xbd83da2b	-0.064380966
30	0xbdfd9488	-0.12381846
31	0x3d490a23	0.049081933

conv4.weight f4 [32, 32, 3]
0	0x3c82e12c	0.015976511
1	0x3df8e825	0.12153653
2	0x3c78582c	0.015157741
3	0xbe04b328	-0.12958968
4	0xbe3f5989	-0.18686499
5	0x3d0f1d8a	0.03494028
6	0xbd22593c	-0.03963588
7	0xbabfab4d	-0.0014623195
8	0x3d828b7d	0.063742615
9	0x3d5a329c	0.05327092
10	0xbde5f6e2	-0.1122873
11	0x3e3a26ad	0.18178816
12	0xbd4365a9	-0.047704373
13	0xbd9324ab	-0.07184728
14	0x3e9cace1	0.30600646
15	0xbdf54042	-0.11975147
16	0x3c3c5625	0.011495148
17	0xbd894b3e	-0.067038044
18	0x3dcffb7b	0.10155388
19	0xbda8d935	-0.08244554
20	0xbdb3ca81	-0.08778859
21	0x3d71a915	0.05899914
22	0x3d8b6191	0.06805719
23	0x3d2cb1e7	0.04216185
24	0xbe1f81a5	-0.15576799
25	0x3e10285b	0.14077894
26	0x3da99617	0.082805805
27	0xbbcb2249	-0.0061991555
28	0xbd6e964a	-0.058248796
29	0xbd180cf4	-0.037121728
30	0xbd10c681	-0.035345558
31	0xbe7746d8	-0.24148118
32	0x3d0b7988	0.034051448
33	0x3e88f8dd	0.26752368
34	0xbecf3ebd	-0.40477553
35	0x3d8302e0	0.06397033
36	0x3d86cb5d	0.06581757
37	0xbc47609f	-0.012169032
38	0xbce9b2fa	-0.028527725
39	0x3d167f44	0.036742464
40	0x3d145b84	0.03622009
41	0xbd7bc14f	-0.06146365
42	0x3e341393	0.17585592
43	0x3cad18d3	0.021130001
44	0xbe7a7c64	-0.24461514
45	0x3e28d1c3	0.16486268
46	0xbdabff6f	-0.083983295
47	0xbda07d27	-0.07836371
48	0xbd34ba3b	-0.044122916
49	0xbd7a3d8c	-0.061093852
50	0x3ddc13ee	0.10745989
51	0xbe32d7ed	-0.17465182
52	0xbe45d997	-0.19321285
53	0xbe668c9c	-0.22514576
54	0x3e5900f8	0.21191776
55	0x3d150fd5	0.03639205
56	0xbe93d8a8	-0.28876233
57	0xbde0ccea	-0.10976584
58	0x3d17508d	0.036942054
59	0x3db1bc24	0.08678463
60	0xbdaaf0c2	-0.08346702
61	0xbd5c3def	-0.053770002
62	0x3ea2f735	0.3182923
63	0x3d9c9159	0.0764491
64	0xbe1b45d6	-0.15163359
65	0xbdd04b1c	-0.10170576
66	0x3e210dd6	0.15727934
67	0xbd88a8d3	-0.06672826
68	0xbe5a81d1	-0.21338584
69	0x3db5a0dc	0.08868572
70	0x3cd385f3	0.025820708
71	0xbd6fba2c	-0.058527157
72	0xbdb706a3	-0.08936813
73	0xbdb789ca	-0.08961828
74	0xbdcb6773	-0.09931841
75	0xbd93295d	-0.07185624
76	0x3d4a08f9	0.049324963
77	0xbd566295	-0.05234011
78	0x3d09fdd7	0.033689346
79	0x3dc512ec	0.0962275
80	0xbe8b1e23	-0.2717143
81	0x3d48e716	0.049048506
82	0x3e0264ed	0.12733813
83	0x3dbfb49a	0.09360619
84	0x3be5bee8	0.007011283
85	0xbd214af6	-0.03937813
86	0x3d5c3bf4	0.053768113
87	0x3e5376a9	0.20650734
88	0x3ca651d2	0.020302687
89	0xbeaf13f0	-0.341949
90	0x3d32a252	0.043611832
91	0xbdc62ec0	-0.096768856
92	0x3d86ad69	0.06576044
93	0xbd7fb528	-0.062428623
94	0xbd00c6de	-0.031439655
95	0xbca02cb3	-0.019552564
96	0xbe2d7e1d	-0.1694264
97	0x3e091992	0.1338866
98	0xbd558cdc	-0.052136287
99	0xbe1b2e57	-0.15154396
100	0xbd8ecb6b	-0.06972393
101	0xbdc9ca50	-0.09853041
102	0x3d3e13d1	0.046405617
103	0xbd8b5ebc	-0.068051785
104	0x3db9d9c6	0.0907474
105	0xbcc2b53c	-0.02376806
106	0x3cf5f6b6	0.030024868
107	0xbaeb3a04	-0.0017946367
108	0x3db378b0	0.08763254
109	0xbe42377a	-0.18966475
110	0xbd94a826	-0.07258634
111	0xbc1aa965	-0.009439801
112	0xbd6facbf	-0.058514353
113	0xbc0d12c3	-0.00861043
114	0xbe6610a5	-0.22467287
115	0xbe1cbab5	-0.15305598
116	0x3e269e4d	0.16271324
117	0x3d7373b0	0.0594365
118	0x3d7bdae8	0.061488062
119	0xbdb46246	-0.08807807
120	0x3c23ecef	0.01000522
121	0xbcdc036d	-0.026857102
122	0x3dc315f8	0.095256746
123	0x3c14eea5	0.0090901
124	0xbd83cf6c	-0.06436047
125	0xbdabc649	-0.08387429
126	0x3e2132d0	0.1574204
127	0xbb99ba6a	-0.0046914117
128	0x3de96dbd	0.11397884
129	0x3e9c5c07	0.3053896
130	0x3d8918fc	0.066942185
131	0x3db4d296	0.088292286
132	0x3d3e6be5	0.046489615
133	0xbe81206e	-0.25220054
134	0xbd0aec9b	-0.03391705
135	0xbd98c542	-0.07459499
136	0xbd270295	-0.040773947
137	0xbd847f0e	-0.06469546
138	0xbda8af87	-0.08236604
139	0x392bf5b1	0.00016399358
140	0xbe0ac9f4	-0.13553602
141	0xbdc5ed42	-0.09664394
142	0x3d8aada2	0.06771399
143	0xbdefa85d	-0.117020346
144	0xbc2a0920	-0.010378152
145	0x3dd9e64b	0.10639628
146	0xbda2e2d3	-0.079534195
147	0x3e40efc2	0.1884146
148	0xbe58507e	-0.21124455
149	0xbdcc480b	-0.099746786
150	0xbd906b61	-0.07051731
151	0xbdb5c9f6	-0.088764116
152	0xbeacc00c	-0.3374027
153	0xbe1bf234	-0.15229112
154	0x3e159aae	0.14609787
155	0x3e30c704	0.17263418
156	0x3d092fbc	0.03349279
157	0xbbc9f795	-0.0061635473
158	0x3deb7bc5	0.114982165
159	0xbcfca3dd	-0.030839855
160	0x3e529333	0.20563965
161	0xbd949476	-0.07254879
162	0x3d2f00dc	0.04272543
163	0x3e5ad079	0.21368589
164	0xbe6a28a2	-0.22867063
165	0x3d603413	0.05473716
166	0xbeaa8a4d	-0.3330864
167	0xbddcf094	-0.10788074
168	0xbd7f47cf	-0.06232434
169	0x3d926cd1	0.07149661
170	0xbdc57af6	-0.096425936
171	0x3d38b016	0.045089804
172	0x3d31875f	0.04334199
173	0x3cd88ede	0.026435312
174	0xbd8b4131	-0.06799544
175	0x3d4351b9	0.04768536
176	0xbd95d96e	-0.07316862
177	0x3cdcc1fd	0.02694797
178	0x3cfd2b7e	0.030904528
179	0x3dbecc25	0.09316281
180	0x3e09547f	0.13411139
181	0xbdc7a94c	-0.09749088
182	0xbdd6d997	-0.10490721
183	0x3d7243ec	0.059146807
184	0x3d05ecf0	0.032696664
185	0x3c07cf6a	0.008289197
186	0x3e00c7a1	0.12576152
187	0x3c87f8ab	0.016598066
188	0xbd87afa7	-0.066253
189	0x3da3cd3f	0.07998132
190	0xbe759f5e	-0.23986575
191	0xbe213e4e	-0.15746424
192	0xbd1fe406	-0.03903582
193	0x3d577803	0.052604686
194	0xbd985952	-0.074389115
195	0xbde33c77	-0.11095517
196	0xbd358336	-0.044314586
197	0xbe76aec7	-0.2409011
198	0x3d8f6757	0.070021324
199	0x3d9228be	0.07136677
200	0xbd11c9ca	-0.03559283
201	0xbed9225f	-0.42409036
202	0x3c9bfd45	0.019041667
203	0xbe9daf89	-0.30797985
204	0xbe2518b1	-0.161227
205	0x3e1ffbe0	0.15623426
206	0xbec4cb6d	-0.38436452
207	0x3b50922e	0.003182541
208	0xbc0ad3d0	-0.008473352
209	0xbda91be7	-0.08257275
210	0x3cefd5f4	0.029276825
211	0x3e91097e	0.28327554
212	0x3eae4245	0.34034935
213	0xbd0c9485	-0.034321327
214	0xbd8cc8c2	-0.06874229
215	0x3bc1f495	0.005919049
216	0x3d1f91dd	0.038957465
217	0xbe52ff24	-0.20605141
218	0x3dce71e0	0.10080314
219	0xbd8409d5	-0.06447188
220	0xbdd85a90	-0.105641484
221	0x3da71076	0.081574365
222	0xbd1ce0ed	-0.038300443
223	0xbd1efe40	-0.03881669
224	0xbe13cb68	-0.14433062
225	0xbe0ad350	-0.13557172
226	0x3e9cb3ae	0.30605835
227	0x3c3eaa31	0.0116372565
228	0xbef98f82	-0.487423
229	0x3d834515	0.06409661
230	0x3de7a73a	0.11311193
231	0xbd5dc749	-0.05414513
232	0x3d76f55c	0.060292587
233	0x3d7f46b8	0.062323302
234	0xbec6c695	-0.3882338
235	0x3c3cca2b	0.01152281
236	0x3d6bdb49	0.057582173
237	0xbe03b1ab	-0.12860744
238	0xbeb37075	-0.35046735
239	0x3db005b6	0.08594839
240	0xbdb576b4	-0.088605314
241	0x3c548f99	0.0129736895
242	0xbc4400c3	-0.011963072
243	0xbdad7d1c	-0.08471128
244	0x3d09e14a	0.033662118
245	0x3e998cb4	0.2999016
246	0x3db25aca	0.08708723
247	0xbe146520	-0.14491701
248	0x3e5a8f32	0.21343687
249	0xbdc16341	-0.09442759
250	0xbe1583ec	-0.14601105
251	0x3e662ddf	0.22478436
252	0x3d49dc3f	0.04928231
253	0x3cbb01ec	0.022828065
254	0x3e905281	0.28187945
255	0xbe656a81	-0.2240391

conv4.bias f4 [32]
0	0x3d154298	0.036440462
1	0xbe75fce4	-0.24022251
2	0x3dfe44df	0.1241548
3	0x3e3e14fd	0.18562694
4	0xbd8d2892	-0.06892504
5	0xbdae42f5	-0.08508865
6	0xbc8e97b5	-0.017406324
7	0x3e83a4ff	0.2571182
8	0xbdee2a51	-0.11629165
9	0xbd86a9dc	-0.06575367
10	0xbdaba033	-0.08380165
11	0xbc0ddc15	-0.008658429
12	0xbdcee83d	-0.1010289
13	0xbdc1fc4d	-0.09471951
14	0xbe0c7d05	-0.13719566
15	0xbd4a0d69	-0.049329195
16	0xbdb84887	-0.089982085
17	0xbd573d26	-0.05254855
18	0x3c33f903	0.010984662
19	0x3d1b4a45	0.037912626
20	0xbca0bc18	-0.01962094
21	0xbd87f8a2	-0.0663922
22	0x3dbcb614	0.09214416
23	0xbd95f86b	-0.073227726
24	0x3d82ad7f	0.06380748
25	0xbde93a9a	-0.113881305
26	0xbdcd2fb2	-0.10018863
27	0xbd75971a	-0.059958555
28	0xbcc9fc59	-0.024656462
29	0xbc569351	-0.013096646
30	0xbd9302d0	-0.07178271
31	0xbcc1a6f7	-0.023639185

conv5.weight f4 [64, 32, 3]
0	0x3d7fe1d7	0.062471237
1	0xbdda0b55	-0.10646693
2	0xbdc49495	-0.09598652
3	0xbd782db8	-0.060590476
4	0x3db86322	0.09003283
5	0xbd2b9f6a	-0.041900076
6	0xbbe719fa	-0.007052657
7	0xbc1399d2	-0.009008842
8	0x3d1255a8	0.03572622
9	0xbd9cee81	-0.076626785
10	0x3b273014	0.0025510835
11	0xbd86748d	-0.06565199
12	0xbb9eefcf	-0.0048503648
13	0xbdd012ce	-0.10159837
14	0xbc691637	-0.014226488
15	0xbce21e98	-0.027602479
16	0x3c0a6f90	0.00844945
17	0x3d6b1428	0.05739227
18	0xbd32b9e1	-0.0436343
19	0x3c5b63c5	0.013390486
20	0xbde6e09f	-0.11273312
21	0x3dcf92e1	0.10135437
22	0xbd45e31a	-0.048312284
23	0xbd85381c	-0.06504843
24	0x3d3df7d0	0.04637891
25	0xbbdbd550	-0.0067087784
26	0xbc3cf048	-0.011531897
27	0x3d23fa80	0.040033817
28	0xbd801964	-0.06254843
29	0x3d92f5f7	0.0717582
30	0xbdc765c9	-0.09736211
31	0x3dc59d12	0.096490994
32	0x3dbdec98	0.09273642
33	0x3d417349	0.047229085
34	0xbc6cc3de	-0.014450995
35	0xbce844d4	-0.028353132
36	0xbd394e9e	-0.04524099
37	0xbd9175e6	-0.071025655
38	0x3d387a6c	0.045038626
39	0x3d9bc848	0.0760656
40	0xbd8e5970	-0.069506526
41	0x3dce7ec2	0.10082771
42	0xbbe8bcca	-0.0071025835
43	0x3d8d77ec	0.06907639
44	0x3c8e75d4	0.01739017
45	0xbb0d8180	-0.002159208
46	0x3c2b0718	0.010438703
47	0x3d8c7924	0.06859043
48	0xbd07cbe6	-0.033153437
49	0x3d59e408	0.053195983
50	0xbd4ee55f	-0.050511714
51	0x3d7a4119	0.06109724
52	0xbd9c4f15	-0.07632271
53	0x3d698340	0.057009935
54	0x3c6992d8	0.014256202
55	0x3c514f00	0.012775183
56	0xbdcfdb2c	-0.101492256
57	0xbca91409	-0.020639436
58	0x3d63c5f8	0.05560872
59	0xbdae5cac	-0.085137695
60	0xbd83e023	-0.06439235
61	0xbe009c28	-0.12559569
62	0xbd919cec	-0.071100086
63	0x3dca080c	0.09864816
64	0xbdd440ac	-0.10363898
65	0xbdc132e0	-0.09433532
66	0xbd90ca44	-0.07069829
67	0xbd5cd73a	-0.053916194
68	0xbde584dd	-0.11206982
69	0x3d9cddaa	0.076594666
70	0x3c3a2238	0.011360697
71	0xbdc8d27e	-0.09805773
72	0xbd7d7f15	-0.061888773
73	0x3d81ad06	0.0633183
74	0xbb7125a0	-0.0036796108
75	0x3d5ce4b0	0.05392903
76	0x3c91ff1c	0.017821841
77	0x3c03f618	0.008054279
78	0x3c394048	0.01130683
79	0xbc8b9464	-0.017038532
80	0x3d5063c4	0.050876394
81	0xbd8ede12	-0.0697595
82	0xbd70c8fe	-0.05878543
83	0xbcf7362c	-0.030177198
84	0xbe018b3d	-0.12650771
85	0x3bd2081c	0.006409658
86	0xbda26c3c	-0.079308
87	0xbca76400	-0.020433426
88	0xbdd1a76a	-0.1023701
89	0x3d981353	0.07425561
90	0xbdacf061	-0.08444286
91	0xbdad4266	-0.0845993
92	0x3d9d84a4	0.07691315
93	0xbd888690	-0.06666291
94	0xbdd05203	-0.101718925
95	0x3dc753ae	0.097327575
96	0x3e687d2c	0.22704
97	0xbd97d7e5	-0.074142255
98	0xbd5ef4d5	-0.05443271
99	0xbdd4be1b	-0.10387822
100	0xbe5626be	-0.20913216
101	0xbe62221c	-0.22083324
102	0x3ddafed7	0.10693138
103	0xbb9224be	-0.0044599464
104	0xbeccffc0	-0.40038872
105	0xbd1f0ec2	-0.038832434
106	0x3d2492d4	0.04017909
107	0x3d3362a4	0.043795243
108	0xbe3bc0ef	-0.18335317
109	0x3d8b017e	0.06787394
110	0xbe791d9a	-0.24327698
111	0x3cb23bcb	0.021757027
112	0xbb58c9dd	-0.0033079304
113	0x3d54ab7a	0.051921345
114	0xbe606fc5	-0.21917637
115	0xbdeb3b9e	-0.114859805
116	0x3d2b162d	0.041769195
117	0x3d993ed6	0.07482688
118	0x3d651377	0.055926766
119	0x3e02439d	0.12721105
120	0xbcfa15c0	-0.03052795
121	0x3d4f0ed0	0.050551236
122	0x3d465ea0	0.048430085
123	0xbe639587	-0.22225009
124	0xbb636640	-0.0034698397
125	0x3e06a689	0.13149466
126	0xbc5c2701	-0.013437034
127	0xbdedcafc	-0.11610982
128	0xbd4ff58e	-0.05077129
129	0x3d456bc6	0.048198484
130	0xbe9c4c15	-0.30526796
131	0xbdb3a8a3	-0.08772399
132	0xbd02faad	-0.031977344
133	0x3dafa02b	0.085754715
134	0xbcc5db28	-0.024152353
135	0xbd74346c	-0.059620306
136	0x3db1b552	0.08677162
137	0x3d5e1f57	0.054229107
138	0x3bec5a18	0.0072128884
139	0xbde6132b	-0.11234125
140	0xbbd6ef53	-0.0065592914
141	0x3d9aa550	0.07551062
142	0xbcdae38a	-0.026719827
143	0xbd6bc317	-0.0575591
144	0xbd58a10d	-0.052887965
145	0xbdd04911	-0.10170186
146	0xbd6f15a9	-0.058370266
147	0x3e5f38fd	0.21799083
148	0xbe218da6	-0.15776691
149	0xbaccbbd5	-0.0015619943
150	0x3d03b528	0.032155186
151	0xba6240ac	-0.00086308527
152	0xbddbb153	-0.10727181
153	0x3e48adb9	0.1959752
154	0xbe4179c0	-0.188941
155	0xbd216c40	-0.039409876
156	0xbdf4371a	-0.11924572
157	0x3b6cbb5d	0.003612242
158	0x3da066d1	0.07832111
159	0x3d71140a	0.058857
160	0xbdcc2932	-0.09968795
161	0x3dea43e8	0.11438733
162	0xbc97e79d	-0.018543059
163	0x3d8b2b4f	0.0679537
164	0xbde7ce28	-0.11318618
165	0x3d047b95	0.03234442
166	0xbcbab8be	-0.02279317
167	0x3d6aa3d9	0.057285164
168	0xbe2cb92d	-0.16867514
169	0x3e76e232	0.24109724
170	0xbe517ba1	-0.20457317
171	0xbd450daf	-0.048108753
172	0x3d233c11	0.039852206
173	0xbde3a0e2	-0.1111467
174	0xbe52067c	-0.20510286
175	0xbdc07ad4	-0.093984276
176	0x3dafd785	0.08586029
177	0xbd681334	-0.05665894
178	0xbcaa5a9c	-0.020795159
179	0xba3b0e80	-0.00071356446
180	0xbe8a3dd5	-0.270003
181	0xbec39388	-0.38198495
182	0x3dca79b2	0.09886493
183	0xbde685a9	-0.112559624
184	0x3ba63a25	0.0050728493
185	0xbe5c8cca	-0.21538082
186	0x3dfbbd64	0.12291983
187	0x3dc231c7	0.094821505
188	0x3c0cec6f	0.008601292
189	0x3d4bbffc	0.049743637
190	0x3d3fcd7d	0.04682683
191	0xbba23089	-0.0049496335
192	0x3e250528	0.16115248
193	0xbf104326	-0.5635246
194	0xbdf02719	-0.11726207
195	0x3e295ffe	0.16540524
196	0x3d9f6d83	0.077845596
197	0xbddffad9	-0.10936517
198	0x3df4d89f	0.1195538
199	0xbe2529f9	-0.16129293
200	0x3b85e14b	0.004085695
201	0xbccde203	-0.025132185
202	0xbea625b2	-0.32450634
203	0x3e0661f8	0.1312331
204	0xbdf47808	-0.11936957
205	0x3e3f1398	0.18659818
206	0xbe8e4c40	-0.2779255
207	0x3d17a4a4	0.037022248
208	0x3d958fa4	0.07302788
209	0x3cff6686	0.031176817
210	0xbd8020d6	-0.06256263
211	0xbe274797	-0.16335903
212	0x3e183b63	0.14866404
213	0x3e8259a6	0.2545902
214	0x3e67af70	0.22625518
215	0xbea02bb9	-0.31283358
216	0xbc9a137f	-0.018808125
217	0xbac5f740	-0.0015103593
218	0xbd41441c	-0.047184095
219	0xbd83d01a	-0.064361766
220	0xbe7e0bc8	-0.24809182
221	0x3cc02265	0.0234539
222	0xbc9347b8	-0.017978534
223	0xbea0260f	-0.31279036
224	0xbd37baa0	-0.044855714
225	0x3e18ebeb	0.14933746
226	0xbd31b92f	-0.043389495
227	0x3d56eedc	0.052473888
228	0x3d3f1958	0.04665503
229	0x3d91e39b	0.071234904
230	0xbbc9f28d	-0.0061629475
231	0x3d4e61b4	0.050386146
232	0xbd8e6332	-0.06952514
233	0x3d0fad2c	0.03507726
234	0x3d9fc334	0.07800904
235	0x3de1ea78	0.110310495
236	0x3c5be441	0.013421119
237	0x3d0bdc2d	0.034145523
238	0x3db2932e	0.087194785
239	0x3dac14b2	0.08402385
240	0xbe0f4ee0	-0.13994932
241	0xbd83fe17	-0.06444948
242	0x3dda5c96	0.106621906
243	0xbe308144	-0.17236811
244	0xbb9e8900	-0.004838109
245	0x3d3ff0b3	0.046860408
246	0x3d6bea4a	0.057596482
247	0x3b7e727a	0.0038825558
248	0xbdc9bcdd	-0.09850476
249	0x3cb1812e	0.021668043
250	0xbe4af840	-0.19821262
251	0xbdc4f85e	-0.09617685
252	0xbea7f73c	-0.32805812
253	0xbe0bc870	-0.1365068
254	0x3e68f424	0.22749382
255	0x3e531628	0.2061392

conv5.bias f4 [64]
0	0xbdc34502	-0.095346466
1	0x3e7d5251	0.24738432
2	0xbe02bc6e	-0.12767193
3	0x3d26194f	0.04055148
4	0xbc88c056	-0.016693275
5	0xbe229a86	-0.15879259
6	0xbc8d52d7	-0.017251415
7	0x3dd0945e	0.10184549
8	0xbe0c0a7b	-0.13675873
9	0xbd7eb0c9	-0.062180314
10	0xbdbf8071	-0.0935067
11	0xbdb035a5	-0.08603982
12	0x3e0d1e72	0.13781145
13	0xbe34f1d0	-0.17670369
14	0xbe125e9a	-0.142939
15	0x3d546f5b	0.05186401
16	0xbddc0a5c	-0.107441634
17	0xbd5a72c4	-0.053332105
18	0xbd2f1e0c	-0.042753264
19	0xbd376f16	-0.044783674
20	0x3e82a041	0.2551289
21	0xbe167f53	-0.14697008
22	0xbd237ca0	-0.039913774
23	0x3e0862fd	0.13319011
24	0xbe0784fc	-0.13234323
25	0x3be4fea4	0.0069883633
26	0xbde22277	-0.1104173
27	0x3b33e800	0.0027451515
28	0xbdf6738c	-0.120337576
29	0x3c17fb97	0.009276292
30	0x3e0d6ff4	0.13812238
31	0xbe004270	-0.12525344
32	0xbda52052	-0.08062805
33	0xbcb6af21	-0.022300305
34	0x3b8ed01a	0.0043583037
35	0xbd28ccc6	-0.041210912
36	0x3d06713c	0.032822832
37	0xbbd57c0a	-0.0065150307
38	0x3e972f30	0.2952819
39	0xbd295fde	-0.04135119
40	0xbcd1c37a	-0.025605906
41	0xbe0fffbd	-0.140624
42	0x3e0e94df	0.13923977
43	0xbdd8c3cf	-0.105842225
44	0xbc1890be	-0.009311853
45	0xbe39b326	-0.18134746
46	0xbd03dd2e	-0.032193355
47	0xbe6e5a56	-0.23276648
48	0x3d903544	0.070414096
49	0xbdacb728	-0.08433372
50	0x3def4b49	0.116842814
51	0x3dfd3ea7	0.123654656
52	0xbb782bcb	-0.00378679
53	0x3dceafe9	0.10092146
54	0xbe6448ef	-0.22293447
55	0x3d06ef53	0.03294308
56	0xbd54840d	-0.051883746
57	0x3d8ed5f1	0.069744
58	0xbcaff61a	-0.021479655
59	0xbd7f3ba4	-0.062312737
60	0x3b89709d	0.0041943328
61	0xbe0533e3	-0.13008074
62	0xbd81a206	-0.06329732
63	0xbd85d3b3	-0.06534519

fc1.weight f4 [128, 864]
0	0x3e475509	0.19466032
1	0xbe11d512	-0.14241436
2	0x3c8b8eb9	0.017035829
3	0xbe51d3f7	-0.20491014
4	0x3d7ff823	0.0624925
5	0xbefd598d	-0.49482384
6	0xbbc7ad18	-0.0060936324
7	0xbde109c6	-0.10988192
8	0xbb9848a9	-0.0046473336
9	0xbeaa51ee	-0.33265632
10	0xbeb98d94	-0.36240828
11	0xb9888dcc	-0.00026045588
12	0x3e1473c8	0.14497292
13	0x3cf7349c	0.030176453
14	0xbe901367	-0.28139803
15	0xbea63b6d	-0.32467213
16	0x3cab6280	0.020920992
17	0x3c5217a1	0.012823016
18	0xbe9bf9ab	-0.3046392
19	0x3dcaa4b0	0.09894693
20	0xbd8b2b90	-0.06795418
21	0xbda6a472	-0.08136834
22	0xbdf68e1b	-0.12038823
23	0xbe40a3c7	-0.18812476
24	0xbd8a8fd0	-0.06765711
25	0xbd80f4b3	-0.06296673
26	0x3e859c74	0.26095927
27	0x3cc338b9	0.023830758
28	0x3daf21d6	0.085513756
29	0xbd8d6b11	-0.06905187
30	0x3c5012d6	0.012699803
31	0xbe372c03	-0.17887883
32	0xbd345557	-0.0440267
33	0x3dc7f754	0.09763971
34	0xbe817c1b	-0.25289997
35	0xbea4d646	-0.32194728
36	0x3dc2b420	0.09507012
37	0xbd0ba9fb	-0.034097653
38	0xbe58351d	-0.21114011
39	0x3dbc696c	0.09199795
40	0x3d8ccb93	0.06874766
41	0x3c17e3af	0.009270593
42	0xbdf13453	-0.11777558
43	0xbd525b20	-0.051356435
44	0x3d258e93	0.040419172
45	0x3e45648c	0.19276637
46	0x3d5e598a	0.05428461
47	0xbe8d3858	-0.2758205
48	0xbb11cfde	-0.0022249143
49	0x3dd17dff	0.1022911
50	0xbe17cd0f	-0.14824317
51	0xbe93b705	-0.2885057
52	0xbe13cc52	-0.14433411
53	0xbd1be1b2	-0.038057037
54	0x3e31d87b	0.17367737
55	0xbdde4964	-0.10853842
56	0x3cd15dea	0.025557477
57	0xbdd2c6fd	-0.1029186
58	0xbeb5ecbb	-0.35532174
59	0x3d68d37c	0.056842312
60	0xbea2fae5	-0.31832042
61	0x3d4af8e3	0.049553763
62	0xbdd177aa	-0.10227902
63	0x3e35456f	0.17702268
64	0xbdf5a0df	-0.11993574
65	0xbe816303	-0.25270852
66	0xbc2308a3	-0.00995079
67	0x3e0aa783	0.13540463
68	0xbdca5de6	-0.09881191
69	0xbd1982d8	-0.037478298
70	0x3c9c8170	0.01910469
71	0xbdaa0f51	-0.083037026
72	0x3e1700da	0.14746419
73	0xbdba0e51	-0.09084762
74	0xbc86c8fd	-0.01645326
75	0xbdda85fa	-0.10670085
76	0x3c68150b	0.014165173
77	0x3cfed7b9	0.031108724
78	0xbddd552b	-0.1080726
79	0xbe7a408a	-0.24438682
80	0x3e48a583	0.19594388
81	0x3e27386a	0.16330114
82	0xbe12d6cd	-0.14339752
83	0xbdff86c4	-0.124768764
84	0x3b9f5ba2	0.0048632184
85	0xbe2450b3	-0.1604641
86	0xbddef0d2	-0.108857766
87	0x3d86cec5	0.06582407
88	0x3c228770	0.009919986
89	0x3ddc8899	0.107682414
90	0xbe5b8573	-0.21437626
91	0xbe4734f8	-0.194538
92	0xbe32b113	-0.17450361
93	0xbc9452ab	-0.018105825
94	0xbe77cec2	-0.24199966
95	0xbe034880	-0.12820625
96	0xbc093c88	-0.008376248
97	0xbd268170	-0.040650785
98	0xbebcf600	-0.36906433
99	0x3da8225d	0.08209679
100	0xbe0a7e23	-0.1352468
101	0xba24e243	-0.0006289819
102	0xb91990fd	-0.0001464523
103	0x3b4a5fa3	0.0030879758
104	0x3dd0aab8	0.10188812
105	0xbe768b33	-0.24076538
106	0xbd6cc44f	-0.057804402
107	0x3e16c1f8	0.1472243
108	0xbdc437a3	-0.09580924
109	0xbbf4637c	-0.0074581485
110	0xbe29f69c	-0.1659798
111	0xbd8f9278	-0.070103586
112	0x3e0ff23a	0.14057246
113	0xbe0ee704	-0.13955313
114	0xbdcf94ed	-0.10135827
115	0x3e58ff42	0.21191123
116	0x3d20c851	0.039253537
117	0xbe5453c6	-0.20735082
118	0x3cfe6a08	0.031056419
119	0x3e1222f8	0.14271152
120	0xbe788e32	-0.24272993
121	0x3cdc866d	0.026919568
122	0xbe15b0fd	-0.14618297
123	0x3e857b56	0.2607066
124	0xbde36cab	-0.11104711
125	0x3cb556ba	0.022136081
126	0x3e0b04c3	0.13576035
127	0x3d833df5	0.06408302
128	0xbd9f0e4c	-0.07766399
129	0xbd532354	-0.051547363
130	0x3d0ec687	0.0348573
131	0xbe34b43d	-0.1764688
132	0x3ce251fc	0.027626984
133	0x3e378006	0.17919931
134	0xbdfc0620	-0.12305856
135	0xbd553e25	-0.05206122
136	0x3da260e3	0.07928636
137	0xbdca0cbb	-0.098657094
138	0xbe658e21	-0.22417499
139	0x3e2f39d6	0.17111906
140	0xbe8db16e	-0.2767443
141	0xbd147cf3	-0.036251973
142	0xbda1292a	-0.078691795
143	0x3e209c39	0.15684594
144	0xbe14f77a	-0.1454753
145	0xbea9864a	-0.33110267
146	0xbad42d7a	-0.001618787
147	0x3da10d36	0.07863848
148	0xbe1fe614	-0.15615112
149	0xbe35e606	-0.17763528
150	0xbe25124a	-0.16120258
151	0x3c68a72f	0.014200016
152	0x3cbc4183	0.022980457
153	0x3d8dea70	0.06929481
154	0x3e659dec	0.22423524
155	0xbdb177f9	-0.08665461
156	0x3ddce2ab	0.10785421
157	0xbdad21a0	-0.08453679
158	0x3d560393	0.052249502
159	0xbe34ec6e	-0.17668316
160	0x3d434490	0.04767281
161	0xbe079e9a	-0.13244095
162	0xbe3dccda	-0.18535176
163	0xbd8ac812	-0.06776442
164	0xbe70fbf6	-0.23533615
165	0x3dbc666a	0.091992214
166	0xbd5cc68d	-0.05390029
167	0xbe80b67b	-0.25139222
168	0xbeabad50	-0.33530664
169	0xbd4080d2	-0.046997853
170	0x3dc7c4ad	0.0975431
171	0xbe8769bf	-0.26447865
172	0x3d9d7635	0.07688562
173	0xbd9bb946	-0.076036975
174	0xbda92732	-0.08259429
175	0x3d28f976	0.04125353
176	0xbd90f082	-0.07077123
177	0xbe469430	-0.19392467
178	0xbdfbe9c0	-0.12300444
179	0x3bc18e3d	0.0059068487
180	0xbda9f269	-0.08298189
181	0xbe2266fb	-0.15859596
182	0x3d24e3e8	0.04025641
183	0xbcf8d332	-0.030374143
184	0x3d5f3b18	0.054499716
185	0x3d9f9259	0.077915855
186	0x3d92f4e7	0.07175618
187	0xbe96fffe	-0.29492182
188	0xbd33ff06	-0.04394438
189	0xbd5a22b2	-0.053255744
190	0xbe54310d	-0.20721836
191	0xbe068b44	-0.13139063
192	0x3ca97ed5	0.020690361
193	0x3de55ee6	0.11199741
194	0xbd02504f	-0.03181487
195	0x3c96c3e7	0.01840396
196	0x3d321d80	0.043485165
197	0xbe2c59d6	-0.16831145
198	0x3c8afa6d	0.016965115
199	0x3bd2b898	0.0064306967
200	0xbcf5d46b	-0.030008515
201	0x3b748785	0.0037312221
202	0xbd8f84e1	-0.070077665
203	0xbdd8c420	-0.10584283
204	0xbdfc3822	-0.12315394
205	0xbd64fecc	-0.055907056
206	0xbe1bc782	-0.15212825
207	0xbd85037a	-0.06494804
208	0xbdda2b3e	-0.10652779
209	0xbdb2aa91	-0.08723939
210	0x3dc36b84	0.09541991
211	0xbd8faabe	-0.07014988
212	0x3e0d75b9	0.13814439
213	0xbd59c5fe	-0.053167336
214	0x3c9c16db	0.019053867
215	0x3cc79d7e	0.02436709
216	0x3c654ca8	0.013995327
217	0xbd0387e7	-0.03211203
218	0x3d01eca2	0.03171981
219	0xbccfbfff	-0.025360106
220	0xbc254f12	-0.010089653
221	0x3ca7ed82	0.020498995
222	0x3cb763a8	0.022386387
223	0xbd1d5f5e	-0.038421027
224	0x3c4a596c	0.012350421
225	0x3ba6e9c8	0.005093787
226	0xbce2c01d	-0.027679497
227	0xbcd0a60d	-0.025469804
228	0xbce44287	-0.027863754
229	0x3cd0c89c	0.025486283
230	0xbcda1a0c	-0.026623748
231	0x3cea0edc	0.028571539
232	0xbcb057cd	-0.021526242
233	0xbd1c4d03	-0.03815938
234	0xbcd496df	-0.025950847
235	0xbce5e247	-0.028061999
236	0x3b657b27	0.0035016031
237	0xbcb78da7	-0.022406412
238	0xbbdabf55	-0.0066756406
239	0xbd1050c7	-0.035233285
240	0x3c2ec76c	0.010667663
241	0xba5a4280	-0.00083259493
242	0xbad065e8	-0.0015899511
243	0xbc04f26c	-0.0081144385
244	0x3cf887dc	0.03033822
245	0x3c045768	0.00807748
246	0xbce1db2c	-0.02757033
247	0x3cf88b8c	0.030339979
248	0x3cfe5e14	0.03105072
249	0xbbfd4748	-0.0077294447
250	0x3c4951f4	0.012287606
251	0xbc9057a0	-0.017619908
252	0xbc979903	-0.018505579
253	0x3bac4e68	0.00525837
254	0x3d04a1d6	0.0323809
255	0xbce691d1	-0.028145703

fc1.bias f4 [128]
0	0xbdf244ce	-0.1182953
1	0xbd5fd5f5	-0.054647405
2	0xbdbf0e94	-0.093289524
3	0xbd8de8f8	-0.06929201
4	0xbe0acf2d	-0.13555594
5	0xbd3a5062	-0.045486815
6	0xbe55a0e1	-0.20862152
7	0xbd3e7cf9	-0.046505902
8	0xbe8572af	-0.2606406
9	0xbda6a17d	-0.0813627
10	0xbde41694	-0.11137119
11	0xbd935b06	-0.07195096
12	0xbdd6c664	-0.10487059
13	0xbe04a559	-0.129537
14	0xbd30c58d	-0.04315715
15	0xbe0c15b2	-0.13680151
16	0xbe16e98b	-0.14737527
17	0xbc45230c	-0.012032282
18	0xbe318fbb	-0.17339985
19	0xbda46bb0	-0.08028352
20	0xbe1dbd94	-0.1540435
21	0xbd88b05b	-0.06674262
22	0xbd643dd0	-0.05572301
23	0xbda0dbe0	-0.07854438
24	0xbe106d4f	-0.14104198
25	0xbd59e37d	-0.053195465
26	0xbe520782	-0.20510677
27	0xbddcad4d	-0.10775242
28	0xbdb01f8e	-0.085997686
29	0xbe0a3770	-0.1349771
30	0xbd990add	-0.07472775
31	0xbddd3842	-0.10801746
32	0xbe05299b	-0.13004152
33	0xbe6c9036	-0.23101887
34	0xbe14084a	-0.14456287
35	0xbe0138ba	-0.12619296
36	0xbdbf8e0c	-0.09353265
37	0xbde02788	-0.1094504
38	0xbe051150	-0.12994885
39	0x3d6441de	0.05572688
40	0xbe10f90f	-0.14157508
41	0xbdc5e343	-0.09662487
42	0xbdde5310	-0.10855687
43	0xbe5075ee	-0.20357487
44	0xbdbe616f	-0.09295928
45	0xbe09e6ac	-0.134669
46	0xbcc1b991	-0.023648055
47	0xbe3ac040	-0.182374
48	0xbd70c1fe	-0.058778755
49	0xbe49e99a	-0.19718018
50	0xbdca060c	-0.098644346
51	0xbded1cb1	-0.11577738
52	0xbdf071d3	-0.1174046
53	0xbdd85691	-0.10563386
54	0xbdfe6aa8	-0.12422687
55	0xbe13e8ef	-0.14444326
56	0xbd6b6375	-0.057467896
57	0xbe0bae36	-0.13640675
58	0xbe18255b	-0.14858
59	0xbd0db96f	-0.03460067
60	0xbe1a3ecf	-0.15063022
61	0xbda1538a	-0.07877262
62	0xbcf5542c	-0.029947363
63	0xbdaa4c18	-0.08315295
64	0xbd423519	-0.04741392
65	0xbda141a4	-0.07873848
66	0xbdc06a44	-0.093952686
67	0xbe39e172	-0.18152407
68	0xbe41d123	-0.18927436
69	0xbe334174	-0.17505437
70	0xbe159454	-0.14607364
71	0xbdafaaca	-0.08577497
72	0xbe11cb6e	-0.14237759
73	0xbe54542a	-0.20735231
74	0xbdae5234	-0.08511773
75	0xbd98c181	-0.07458783
76	0xbe27dd13	-0.16392927
77	0xbdc5cf9d	-0.0965874
78	0xbd5d3621	-0.0540067
79	0xbe0b7e55	-0.1362241
80	0xbdbced67	-0.092249684
81	0xbc3042af	-0.010758086
82	0xbe08a1b9	-0.13342942
83	0xbdd9c8a5	-0.10633973
84	0xbe01fe14	-0.1269458
85	0x3d3e5e4a	0.04647664
86	0xbe16262d	-0.14663
87	0xbdc84bdf	-0.09780096
88	0xbddb77d5	-0.107162155
89	0xbd905d0c	-0.07048997
90	0xbdc774cf	-0.09739076
91	0xbe31553c	-0.1731767
92	0xbd7d33de	-0.061817043
93	0xbd9e930c	-0.07742891
94	0xbd46ceca	-0.048537053
95	0xbe309081	-0.17242624
96	0x3cb4f6b3	0.022090292
97	0xbdf6d550	-0.12052405
98	0xbe62e43e	-0.2215738
99	0xbd3f2a6d	-0.04667132
100	0xbe151274	-0.1455782
101	0xbe43cb5f	-0.19120549
102	0xbe325134	-0.17413789
103	0xbdd5ec80	-0.104454994
104	0xbe01624c	-0.12635154
105	0xbe3e8c21	-0.18608142
106	0xbe5d1bf9	-0.21592702
107	0xbd3bcddb	-0.045850616
108	0xbd91ff94	-0.07128826
109	0x3d0e2fb0	0.034713447
110	0xbd26e891	-0.040749136
111	0xbe24bb9b	-0.16087191
112	0xbe07880e	-0.13235494
113	0xbd92e75f	-0.07173037
114	0xbdc59201	-0.09646989
115	0xbda6f26c	-0.08151707
116	0xbe14939c	-0.14509434
117	0xbd631cdf	-0.055447455
118	0xbd66cde1	-0.056348685
119	0xbe4ee7d6	-0.20205626
120	0xbcf2de88	-0.029647127
121	0xbd71660b	-0.058935206
122	0xbe151f4b	-0.14562719
123	0xbe30eb35	-0.17277224
124	0xbd7832ed	-0.06059544
125	0xbdf6fa97	-0.12059515
126	0xbd861a1e	-0.0654795
127	0xbe5c58df	-0.21518277
